_________________________________________________________________
Layer (type)                 Output Shape              Param #   
=================================================================
input_1 (InputLayer)         (None, 32, 32, 3)         0         
_________________________________________________________________
flatten_1 (Flatten)          (None, 3072)              0         
_________________________________________________________________
embedding_1 (Embedding)      (None, 3072, 100)         25600     
_________________________________________________________________
time_distributed_1 (TimeDist (None, 3072, 128)         12928     
_________________________________________________________________
time_distributed_2 (TimeDist (None, 3072, 1)           129       
_________________________________________________________________
flatten_2 (Flatten)          (None, 3072)              0         
_________________________________________________________________
dense_3 (Dense)              (None, 1024)              3146752   
_________________________________________________________________
dense_4 (Dense)              (None, 1)                 1025      
=================================================================
Total params: 3,186,434
Trainable params: 3,186,434
Non-trainable params: 0
_________________________________________________________________

 epoch 1
Epoch 1/1

  32/3200 [..............................] - ETA: 2:04 - loss: 0.5048 - acc: 0.3125
 128/3200 [>.............................] - ETA: 31s - loss: 0.5030 - acc: 0.4531 
…
