__________________________________________________________________________________________________
Layer (type)                    Output Shape         Param #     Connected to                     
==================================================================================================
input_2 (InputLayer)            (None, 32, 32, 1)    0                                            
__________________________________________________________________________________________________
conv2d_1 (Conv2D)               (None, 32, 32, 50)   500         input_2[0][0]                    
__________________________________________________________________________________________________
conv2d_5 (Conv2D)               (None, 32, 32, 50)   850         input_2[0][0]                    
__________________________________________________________________________________________________
conv2d_9 (Conv2D)               (None, 32, 32, 50)   1300        input_2[0][0]                    
__________________________________________________________________________________________________
conv2d_2 (Conv2D)               (None, 32, 32, 50)   22550       conv2d_1[0][0]                   
__________________________________________________________________________________________________
conv2d_6 (Conv2D)               (None, 32, 32, 50)   40050       conv2d_5[0][0]                   
__________________________________________________________________________________________________
conv2d_10 (Conv2D)              (None, 32, 32, 50)   62550       conv2d_9[0][0]                   
__________________________________________________________________________________________________
conv2d_3 (Conv2D)               (None, 32, 32, 50)   22550       conv2d_2[0][0]                   
__________________________________________________________________________________________________
conv2d_7 (Conv2D)               (None, 32, 32, 50)   40050       conv2d_6[0][0]                   
__________________________________________________________________________________________________
conv2d_11 (Conv2D)              (None, 32, 32, 50)   62550       conv2d_10[0][0]                  
__________________________________________________________________________________________________
conv2d_4 (Conv2D)               (None, 32, 32, 50)   22550       conv2d_3[0][0]                   
__________________________________________________________________________________________________
conv2d_8 (Conv2D)               (None, 32, 32, 50)   40050       conv2d_7[0][0]                   
__________________________________________________________________________________________________
conv2d_12 (Conv2D)              (None, 32, 32, 50)   62550       conv2d_11[0][0]                  
__________________________________________________________________________________________________
concatenate_1 (Concatenate)     (None, 32, 32, 150)  0           conv2d_4[0][0]                   
                                                                 conv2d_8[0][0]                   
                                                                 conv2d_12[0][0]                  
__________________________________________________________________________________________________
conv2d_15 (Conv2D)              (None, 32, 32, 50)   187550      concatenate_1[0][0]              
__________________________________________________________________________________________________
conv2d_14 (Conv2D)              (None, 32, 32, 50)   120050      concatenate_1[0][0]              
__________________________________________________________________________________________________
conv2d_13 (Conv2D)              (None, 32, 32, 50)   67550       concatenate_1[0][0]              
__________________________________________________________________________________________________
input_1 (InputLayer)            (None, 32, 32, 3)    0                                            
__________________________________________________________________________________________________
prepared (Concatenate)          (None, 32, 32, 150)  0           conv2d_15[0][0]                  
                                                                 conv2d_14[0][0]                  
                                                                 conv2d_13[0][0]                  
__________________________________________________________________________________________________
concatenate_2 (Concatenate)     (None, 32, 32, 153)  0           input_1[0][0]                    
                                                                 prepared[0][0]                   
__________________________________________________________________________________________________
conv2d_16 (Conv2D)              (None, 32, 32, 50)   68900       concatenate_2[0][0]              
__________________________________________________________________________________________________
conv2d_20 (Conv2D)              (None, 32, 32, 50)   122450      concatenate_2[0][0]              
__________________________________________________________________________________________________
conv2d_24 (Conv2D)              (None, 32, 32, 50)   191300      concatenate_2[0][0]              
__________________________________________________________________________________________________
conv2d_17 (Conv2D)              (None, 32, 32, 50)   22550       conv2d_16[0][0]                  
__________________________________________________________________________________________________
conv2d_21 (Conv2D)              (None, 32, 32, 50)   40050       conv2d_20[0][0]                  
__________________________________________________________________________________________________
conv2d_25 (Conv2D)              (None, 32, 32, 50)   62550       conv2d_24[0][0]                  
__________________________________________________________________________________________________
conv2d_18 (Conv2D)              (None, 32, 32, 50)   22550       conv2d_17[0][0]                  
__________________________________________________________________________________________________
conv2d_22 (Conv2D)              (None, 32, 32, 50)   40050       conv2d_21[0][0]                  
__________________________________________________________________________________________________
conv2d_26 (Conv2D)              (None, 32, 32, 50)   62550       conv2d_25[0][0]                  
__________________________________________________________________________________________________
conv2d_19 (Conv2D)              (None, 32, 32, 50)   22550       conv2d_18[0][0]                  
__________________________________________________________________________________________________
conv2d_23 (Conv2D)              (None, 32, 32, 50)   40050       conv2d_22[0][0]                  
__________________________________________________________________________________________________
conv2d_27 (Conv2D)              (None, 32, 32, 50)   62550       conv2d_26[0][0]                  
__________________________________________________________________________________________________
concatenate_3 (Concatenate)     (None, 32, 32, 150)  0           conv2d_19[0][0]                  
                                                                 conv2d_23[0][0]                  
                                                                 conv2d_27[0][0]                  
__________________________________________________________________________________________________
conv2d_30 (Conv2D)              (None, 32, 32, 50)   187550      concatenate_3[0][0]              
__________________________________________________________________________________________________
conv2d_29 (Conv2D)              (None, 32, 32, 50)   120050      concatenate_3[0][0]              
__________________________________________________________________________________________________
conv2d_28 (Conv2D)              (None, 32, 32, 50)   67550       concatenate_3[0][0]              
__________________________________________________________________________________________________
hidden (Concatenate)            (None, 32, 32, 150)  0           conv2d_30[0][0]                  
                                                                 conv2d_29[0][0]                  
                                                                 conv2d_28[0][0]                  
__________________________________________________________________________________________________
hidden_secret (Conv2D)          (None, 32, 32, 3)    453         hidden[0][0]                     
__________________________________________________________________________________________________
revealing_model (Model)         (None, 32, 32, 1)    758401      hidden_secret[0][0]              
__________________________________________________________________________________________________
censorship_detection (Model)    (None, 1)            354721      hidden_secret[0][0]              
==================================================================================================
Total params: 3,000,075
Trainable params: 2,645,354
Non-trainable params: 354,721
__________________________________________________________________________________________________
epoch [ 1 / 50]
>> generating data
[0.5254902  0.50980392 0.45490196]
>> fitting
…
3168/3200 [============================>.] - ETA: 0s - loss: 0.0168 - hidden_secret_loss: 0.0074 - revealing_model_loss: 0.0125 - hidden_secret_mean_absolute_error: 0.0538 - revealing_model_mean_absolute_error: 0.0481
3200/3200 [==============================] - 22s 7ms/step - loss: 0.0167 - hidden_secret_loss: 0.0074 - revealing_model_loss: 0.0124 - hidden_secret_mean_absolute_error: 0.0538 - revealing_model_mean_absolute_error: 0.0479
__________________________________________________________________________________________________
Layer (type)                    Output Shape         Param #     Connected to                     
==================================================================================================
input_2 (InputLayer)            (None, 32, 32, 1)    0                                            
__________________________________________________________________________________________________
conv2d_1 (Conv2D)               (None, 32, 32, 50)   500         input_2[0][0]                    
__________________________________________________________________________________________________
conv2d_5 (Conv2D)               (None, 32, 32, 50)   850         input_2[0][0]                    
__________________________________________________________________________________________________
conv2d_9 (Conv2D)               (None, 32, 32, 50)   1300        input_2[0][0]                    
__________________________________________________________________________________________________
conv2d_2 (Conv2D)               (None, 32, 32, 50)   22550       conv2d_1[0][0]                   
__________________________________________________________________________________________________
conv2d_6 (Conv2D)               (None, 32, 32, 50)   40050       conv2d_5[0][0]                   
__________________________________________________________________________________________________
conv2d_10 (Conv2D)              (None, 32, 32, 50)   62550       conv2d_9[0][0]                   
__________________________________________________________________________________________________
conv2d_3 (Conv2D)               (None, 32, 32, 50)   22550       conv2d_2[0][0]                   
__________________________________________________________________________________________________
conv2d_7 (Conv2D)               (None, 32, 32, 50)   40050       conv2d_6[0][0]                   
__________________________________________________________________________________________________
conv2d_11 (Conv2D)              (None, 32, 32, 50)   62550       conv2d_10[0][0]                  
__________________________________________________________________________________________________
conv2d_4 (Conv2D)               (None, 32, 32, 50)   22550       conv2d_3[0][0]                   
__________________________________________________________________________________________________
conv2d_8 (Conv2D)               (None, 32, 32, 50)   40050       conv2d_7[0][0]                   
__________________________________________________________________________________________________
conv2d_12 (Conv2D)              (None, 32, 32, 50)   62550       conv2d_11[0][0]                  
__________________________________________________________________________________________________
concatenate_1 (Concatenate)     (None, 32, 32, 150)  0           conv2d_4[0][0]                   
                                                                 conv2d_8[0][0]                   
                                                                 conv2d_12[0][0]                  
__________________________________________________________________________________________________
conv2d_15 (Conv2D)              (None, 32, 32, 50)   187550      concatenate_1[0][0]              
__________________________________________________________________________________________________
conv2d_14 (Conv2D)              (None, 32, 32, 50)   120050      concatenate_1[0][0]              
__________________________________________________________________________________________________
conv2d_13 (Conv2D)              (None, 32, 32, 50)   67550       concatenate_1[0][0]              
__________________________________________________________________________________________________
input_1 (InputLayer)            (None, 32, 32, 3)    0                                            
__________________________________________________________________________________________________
prepared (Concatenate)          (None, 32, 32, 150)  0           conv2d_15[0][0]                  
                                                                 conv2d_14[0][0]                  
                                                                 conv2d_13[0][0]                  
__________________________________________________________________________________________________
concatenate_2 (Concatenate)     (None, 32, 32, 153)  0           input_1[0][0]                    
                                                                 prepared[0][0]                   
__________________________________________________________________________________________________
conv2d_16 (Conv2D)              (None, 32, 32, 50)   68900       concatenate_2[0][0]              
__________________________________________________________________________________________________
conv2d_20 (Conv2D)              (None, 32, 32, 50)   122450      concatenate_2[0][0]              
__________________________________________________________________________________________________
conv2d_24 (Conv2D)              (None, 32, 32, 50)   191300      concatenate_2[0][0]              
__________________________________________________________________________________________________
conv2d_17 (Conv2D)              (None, 32, 32, 50)   22550       conv2d_16[0][0]                  
__________________________________________________________________________________________________
conv2d_21 (Conv2D)              (None, 32, 32, 50)   40050       conv2d_20[0][0]                  
__________________________________________________________________________________________________
conv2d_25 (Conv2D)              (None, 32, 32, 50)   62550       conv2d_24[0][0]                  
__________________________________________________________________________________________________
conv2d_18 (Conv2D)              (None, 32, 32, 50)   22550       conv2d_17[0][0]                  
__________________________________________________________________________________________________
conv2d_22 (Conv2D)              (None, 32, 32, 50)   40050       conv2d_21[0][0]                  
__________________________________________________________________________________________________
conv2d_26 (Conv2D)              (None, 32, 32, 50)   62550       conv2d_25[0][0]                  
__________________________________________________________________________________________________
conv2d_19 (Conv2D)              (None, 32, 32, 50)   22550       conv2d_18[0][0]                  
__________________________________________________________________________________________________
conv2d_23 (Conv2D)              (None, 32, 32, 50)   40050       conv2d_22[0][0]                  
__________________________________________________________________________________________________
conv2d_27 (Conv2D)              (None, 32, 32, 50)   62550       conv2d_26[0][0]                  
__________________________________________________________________________________________________
concatenate_3 (Concatenate)     (None, 32, 32, 150)  0           conv2d_19[0][0]                  
                                                                 conv2d_23[0][0]                  
                                                                 conv2d_27[0][0]                  
__________________________________________________________________________________________________
conv2d_30 (Conv2D)              (None, 32, 32, 50)   187550      concatenate_3[0][0]              
__________________________________________________________________________________________________
conv2d_29 (Conv2D)              (None, 32, 32, 50)   120050      concatenate_3[0][0]              
__________________________________________________________________________________________________
conv2d_28 (Conv2D)              (None, 32, 32, 50)   67550       concatenate_3[0][0]              
__________________________________________________________________________________________________
hidden (Concatenate)            (None, 32, 32, 150)  0           conv2d_30[0][0]                  
                                                                 conv2d_29[0][0]                  
                                                                 conv2d_28[0][0]                  
__________________________________________________________________________________________________
hidden_secret (Conv2D)          (None, 32, 32, 3)    453         hidden[0][0]                     
__________________________________________________________________________________________________
revealing_model (Model)         (None, 32, 32, 1)    758401      hidden_secret[0][0]              
__________________________________________________________________________________________________
censorship_detection (Model)    (None, 1)            354721      hidden_secret[0][0]              
==================================================================================================
Total params: 3,000,075
Trainable params: 2,645,354
Non-trainable params: 354,721
__________________________________________________________________________________________________
__________________________________________________________________________________________________
Layer (type)                    Output Shape         Param #     Connected to                     
==================================================================================================
input_2 (InputLayer)            (None, 32, 32, 1)    0                                            
__________________________________________________________________________________________________
conv2d_1 (Conv2D)               (None, 32, 32, 50)   500         input_2[0][0]                    
__________________________________________________________________________________________________
conv2d_5 (Conv2D)               (None, 32, 32, 50)   850         input_2[0][0]                    
__________________________________________________________________________________________________
conv2d_9 (Conv2D)               (None, 32, 32, 50)   1300        input_2[0][0]                    
__________________________________________________________________________________________________
conv2d_2 (Conv2D)               (None, 32, 32, 50)   22550       conv2d_1[0][0]                   
__________________________________________________________________________________________________
conv2d_6 (Conv2D)               (None, 32, 32, 50)   40050       conv2d_5[0][0]                   
__________________________________________________________________________________________________
conv2d_10 (Conv2D)              (None, 32, 32, 50)   62550       conv2d_9[0][0]                   
__________________________________________________________________________________________________
conv2d_3 (Conv2D)               (None, 32, 32, 50)   22550       conv2d_2[0][0]                   
__________________________________________________________________________________________________
conv2d_7 (Conv2D)               (None, 32, 32, 50)   40050       conv2d_6[0][0]                   
__________________________________________________________________________________________________
conv2d_11 (Conv2D)              (None, 32, 32, 50)   62550       conv2d_10[0][0]                  
__________________________________________________________________________________________________
conv2d_4 (Conv2D)               (None, 32, 32, 50)   22550       conv2d_3[0][0]                   
__________________________________________________________________________________________________
conv2d_8 (Conv2D)               (None, 32, 32, 50)   40050       conv2d_7[0][0]                   
__________________________________________________________________________________________________
conv2d_12 (Conv2D)              (None, 32, 32, 50)   62550       conv2d_11[0][0]                  
__________________________________________________________________________________________________
concatenate_1 (Concatenate)     (None, 32, 32, 150)  0           conv2d_4[0][0]                   
                                                                 conv2d_8[0][0]                   
                                                                 conv2d_12[0][0]                  
__________________________________________________________________________________________________
conv2d_15 (Conv2D)              (None, 32, 32, 50)   187550      concatenate_1[0][0]              
__________________________________________________________________________________________________
conv2d_14 (Conv2D)              (None, 32, 32, 50)   120050      concatenate_1[0][0]              
__________________________________________________________________________________________________
conv2d_13 (Conv2D)              (None, 32, 32, 50)   67550       concatenate_1[0][0]              
__________________________________________________________________________________________________
input_1 (InputLayer)            (None, 32, 32, 3)    0                                            
__________________________________________________________________________________________________
prepared (Concatenate)          (None, 32, 32, 150)  0           conv2d_15[0][0]                  
                                                                 conv2d_14[0][0]                  
                                                                 conv2d_13[0][0]                  
__________________________________________________________________________________________________
concatenate_2 (Concatenate)     (None, 32, 32, 153)  0           input_1[0][0]                    
                                                                 prepared[0][0]                   
__________________________________________________________________________________________________
conv2d_16 (Conv2D)              (None, 32, 32, 50)   68900       concatenate_2[0][0]              
__________________________________________________________________________________________________
conv2d_20 (Conv2D)              (None, 32, 32, 50)   122450      concatenate_2[0][0]              
__________________________________________________________________________________________________
conv2d_24 (Conv2D)              (None, 32, 32, 50)   191300      concatenate_2[0][0]              
__________________________________________________________________________________________________
conv2d_17 (Conv2D)              (None, 32, 32, 50)   22550       conv2d_16[0][0]                  
__________________________________________________________________________________________________
conv2d_21 (Conv2D)              (None, 32, 32, 50)   40050       conv2d_20[0][0]                  
__________________________________________________________________________________________________
conv2d_25 (Conv2D)              (None, 32, 32, 50)   62550       conv2d_24[0][0]                  
__________________________________________________________________________________________________
conv2d_18 (Conv2D)              (None, 32, 32, 50)   22550       conv2d_17[0][0]                  
__________________________________________________________________________________________________
conv2d_22 (Conv2D)              (None, 32, 32, 50)   40050       conv2d_21[0][0]                  
__________________________________________________________________________________________________
conv2d_26 (Conv2D)              (None, 32, 32, 50)   62550       conv2d_25[0][0]                  
__________________________________________________________________________________________________
conv2d_19 (Conv2D)              (None, 32, 32, 50)   22550       conv2d_18[0][0]                  
__________________________________________________________________________________________________
conv2d_23 (Conv2D)              (None, 32, 32, 50)   40050       conv2d_22[0][0]                  
__________________________________________________________________________________________________
conv2d_27 (Conv2D)              (None, 32, 32, 50)   62550       conv2d_26[0][0]                  
__________________________________________________________________________________________________
concatenate_3 (Concatenate)     (None, 32, 32, 150)  0           conv2d_19[0][0]                  
                                                                 conv2d_23[0][0]                  
                                                                 conv2d_27[0][0]                  
__________________________________________________________________________________________________
conv2d_30 (Conv2D)              (None, 32, 32, 50)   187550      concatenate_3[0][0]              
__________________________________________________________________________________________________
conv2d_29 (Conv2D)              (None, 32, 32, 50)   120050      concatenate_3[0][0]              
__________________________________________________________________________________________________
conv2d_28 (Conv2D)              (None, 32, 32, 50)   67550       concatenate_3[0][0]              
__________________________________________________________________________________________________
hidden (Concatenate)            (None, 32, 32, 150)  0           conv2d_30[0][0]                  
                                                                 conv2d_29[0][0]                  
                                                                 conv2d_28[0][0]                  
__________________________________________________________________________________________________
hidden_secret (Conv2D)          (None, 32, 32, 3)    453         hidden[0][0]                     
__________________________________________________________________________________________________
revealing_model (Model)         (None, 32, 32, 1)    758401      hidden_secret[0][0]              
__________________________________________________________________________________________________
censorship_detection (Model)    (None, 1)            354721      hidden_secret[0][0]              
==================================================================================================
Total params: 3,000,075
Trainable params: 2,645,354
Non-trainable params: 354,721
__________________________________________________________________________________________________
__________________________________________________________________________________________________
Layer (type)                    Output Shape         Param #     Connected to                     
==================================================================================================
input_2 (InputLayer)            (None, 32, 32, 1)    0                                            
__________________________________________________________________________________________________
conv2d_1 (Conv2D)               (None, 32, 32, 50)   500         input_2[0][0]                    
__________________________________________________________________________________________________
conv2d_5 (Conv2D)               (None, 32, 32, 50)   850         input_2[0][0]                    
__________________________________________________________________________________________________
conv2d_9 (Conv2D)               (None, 32, 32, 50)   1300        input_2[0][0]                    
__________________________________________________________________________________________________
conv2d_2 (Conv2D)               (None, 32, 32, 50)   22550       conv2d_1[0][0]                   
__________________________________________________________________________________________________
conv2d_6 (Conv2D)               (None, 32, 32, 50)   40050       conv2d_5[0][0]                   
__________________________________________________________________________________________________
conv2d_10 (Conv2D)              (None, 32, 32, 50)   62550       conv2d_9[0][0]                   
__________________________________________________________________________________________________
conv2d_3 (Conv2D)               (None, 32, 32, 50)   22550       conv2d_2[0][0]                   
__________________________________________________________________________________________________
conv2d_7 (Conv2D)               (None, 32, 32, 50)   40050       conv2d_6[0][0]                   
__________________________________________________________________________________________________
conv2d_11 (Conv2D)              (None, 32, 32, 50)   62550       conv2d_10[0][0]                  
__________________________________________________________________________________________________
conv2d_4 (Conv2D)               (None, 32, 32, 50)   22550       conv2d_3[0][0]                   
__________________________________________________________________________________________________
conv2d_8 (Conv2D)               (None, 32, 32, 50)   40050       conv2d_7[0][0]                   
__________________________________________________________________________________________________
conv2d_12 (Conv2D)              (None, 32, 32, 50)   62550       conv2d_11[0][0]                  
__________________________________________________________________________________________________
concatenate_1 (Concatenate)     (None, 32, 32, 150)  0           conv2d_4[0][0]                   
                                                                 conv2d_8[0][0]                   
                                                                 conv2d_12[0][0]                  
__________________________________________________________________________________________________
conv2d_15 (Conv2D)              (None, 32, 32, 50)   187550      concatenate_1[0][0]              
__________________________________________________________________________________________________
conv2d_14 (Conv2D)              (None, 32, 32, 50)   120050      concatenate_1[0][0]              
__________________________________________________________________________________________________
conv2d_13 (Conv2D)              (None, 32, 32, 50)   67550       concatenate_1[0][0]              
__________________________________________________________________________________________________
input_1 (InputLayer)            (None, 32, 32, 3)    0                                            
__________________________________________________________________________________________________
prepared (Concatenate)          (None, 32, 32, 150)  0           conv2d_15[0][0]                  
                                                                 conv2d_14[0][0]                  
                                                                 conv2d_13[0][0]                  
__________________________________________________________________________________________________
concatenate_2 (Concatenate)     (None, 32, 32, 153)  0           input_1[0][0]                    
                                                                 prepared[0][0]                   
__________________________________________________________________________________________________
conv2d_16 (Conv2D)              (None, 32, 32, 50)   68900       concatenate_2[0][0]              
__________________________________________________________________________________________________
conv2d_20 (Conv2D)              (None, 32, 32, 50)   122450      concatenate_2[0][0]              
__________________________________________________________________________________________________
conv2d_24 (Conv2D)              (None, 32, 32, 50)   191300      concatenate_2[0][0]              
__________________________________________________________________________________________________
conv2d_17 (Conv2D)              (None, 32, 32, 50)   22550       conv2d_16[0][0]                  
__________________________________________________________________________________________________
conv2d_21 (Conv2D)              (None, 32, 32, 50)   40050       conv2d_20[0][0]                  
__________________________________________________________________________________________________
conv2d_25 (Conv2D)              (None, 32, 32, 50)   62550       conv2d_24[0][0]                  
__________________________________________________________________________________________________
conv2d_18 (Conv2D)              (None, 32, 32, 50)   22550       conv2d_17[0][0]                  
__________________________________________________________________________________________________
conv2d_22 (Conv2D)              (None, 32, 32, 50)   40050       conv2d_21[0][0]                  
__________________________________________________________________________________________________
conv2d_26 (Conv2D)              (None, 32, 32, 50)   62550       conv2d_25[0][0]                  
__________________________________________________________________________________________________
conv2d_19 (Conv2D)              (None, 32, 32, 50)   22550       conv2d_18[0][0]                  
__________________________________________________________________________________________________
conv2d_23 (Conv2D)              (None, 32, 32, 50)   40050       conv2d_22[0][0]                  
__________________________________________________________________________________________________
conv2d_27 (Conv2D)              (None, 32, 32, 50)   62550       conv2d_26[0][0]                  
__________________________________________________________________________________________________
concatenate_3 (Concatenate)     (None, 32, 32, 150)  0           conv2d_19[0][0]                  
                                                                 conv2d_23[0][0]                  
                                                                 conv2d_27[0][0]                  
__________________________________________________________________________________________________
conv2d_30 (Conv2D)              (None, 32, 32, 50)   187550      concatenate_3[0][0]              
__________________________________________________________________________________________________
conv2d_29 (Conv2D)              (None, 32, 32, 50)   120050      concatenate_3[0][0]              
__________________________________________________________________________________________________
conv2d_28 (Conv2D)              (None, 32, 32, 50)   67550       concatenate_3[0][0]              
__________________________________________________________________________________________________
hidden (Concatenate)            (None, 32, 32, 150)  0           conv2d_30[0][0]                  
                                                                 conv2d_29[0][0]                  
                                                                 conv2d_28[0][0]                  
__________________________________________________________________________________________________
hidden_secret (Conv2D)          (None, 32, 32, 3)    453         hidden[0][0]                     
__________________________________________________________________________________________________
revealing_model (Model)         (None, 32, 32, 1)    758401      hidden_secret[0][0]              
__________________________________________________________________________________________________
censorship_detection (Model)    (None, 1)            354721      hidden_secret[0][0]              
==================================================================================================
Total params: 3,000,075
Trainable params: 2,645,354
Non-trainable params: 354,721
__________________________________________________________________________________________________
(array([[[ -1.8286061 ,  -0.87789226,  -1.0472606 ],
        [ -1.0684291 ,  -2.4203475 ,  -2.494545  ],
…
