__________________________________________________________________________________________________
Layer (type)                    Output Shape         Param #     Connected to                     
==================================================================================================
input_2 (InputLayer)            (None, 32, 32, 3)    0                                            
__________________________________________________________________________________________________
conv2d_1 (Conv2D)               (None, 32, 32, 50)   1400        input_2[0][0]                    
__________________________________________________________________________________________________
conv2d_5 (Conv2D)               (None, 32, 32, 50)   2450        input_2[0][0]                    
__________________________________________________________________________________________________
conv2d_9 (Conv2D)               (None, 32, 32, 50)   3800        input_2[0][0]                    
__________________________________________________________________________________________________
conv2d_2 (Conv2D)               (None, 32, 32, 50)   22550       conv2d_1[0][0]                   
__________________________________________________________________________________________________
conv2d_6 (Conv2D)               (None, 32, 32, 50)   40050       conv2d_5[0][0]                   
__________________________________________________________________________________________________
conv2d_10 (Conv2D)              (None, 32, 32, 50)   62550       conv2d_9[0][0]                   
__________________________________________________________________________________________________
conv2d_3 (Conv2D)               (None, 32, 32, 50)   22550       conv2d_2[0][0]                   
__________________________________________________________________________________________________
conv2d_7 (Conv2D)               (None, 32, 32, 50)   40050       conv2d_6[0][0]                   
__________________________________________________________________________________________________
conv2d_11 (Conv2D)              (None, 32, 32, 50)   62550       conv2d_10[0][0]                  
__________________________________________________________________________________________________
conv2d_4 (Conv2D)               (None, 32, 32, 50)   22550       conv2d_3[0][0]                   
__________________________________________________________________________________________________
conv2d_8 (Conv2D)               (None, 32, 32, 50)   40050       conv2d_7[0][0]                   
__________________________________________________________________________________________________
conv2d_12 (Conv2D)              (None, 32, 32, 50)   62550       conv2d_11[0][0]                  
__________________________________________________________________________________________________
concatenate_1 (Concatenate)     (None, 32, 32, 150)  0           conv2d_4[0][0]                   
                                                                 conv2d_8[0][0]                   
                                                                 conv2d_12[0][0]                  
__________________________________________________________________________________________________
conv2d_15 (Conv2D)              (None, 32, 32, 50)   187550      concatenate_1[0][0]              
__________________________________________________________________________________________________
conv2d_14 (Conv2D)              (None, 32, 32, 50)   120050      concatenate_1[0][0]              
__________________________________________________________________________________________________
conv2d_13 (Conv2D)              (None, 32, 32, 50)   67550       concatenate_1[0][0]              
__________________________________________________________________________________________________
input_1 (InputLayer)            (None, 32, 32, 3)    0                                            
__________________________________________________________________________________________________
prepared (Concatenate)          (None, 32, 32, 150)  0           conv2d_15[0][0]                  
                                                                 conv2d_14[0][0]                  
                                                                 conv2d_13[0][0]                  
__________________________________________________________________________________________________
concatenate_2 (Concatenate)     (None, 32, 32, 153)  0           input_1[0][0]                    
                                                                 prepared[0][0]                   
__________________________________________________________________________________________________
conv2d_16 (Conv2D)              (None, 32, 32, 50)   68900       concatenate_2[0][0]              
__________________________________________________________________________________________________
conv2d_20 (Conv2D)              (None, 32, 32, 50)   122450      concatenate_2[0][0]              
__________________________________________________________________________________________________
conv2d_24 (Conv2D)              (None, 32, 32, 50)   191300      concatenate_2[0][0]              
__________________________________________________________________________________________________
conv2d_17 (Conv2D)              (None, 32, 32, 50)   22550       conv2d_16[0][0]                  
__________________________________________________________________________________________________
conv2d_21 (Conv2D)              (None, 32, 32, 50)   40050       conv2d_20[0][0]                  
__________________________________________________________________________________________________
conv2d_25 (Conv2D)              (None, 32, 32, 50)   62550       conv2d_24[0][0]                  
__________________________________________________________________________________________________
conv2d_18 (Conv2D)              (None, 32, 32, 50)   22550       conv2d_17[0][0]                  
__________________________________________________________________________________________________
conv2d_22 (Conv2D)              (None, 32, 32, 50)   40050       conv2d_21[0][0]                  
__________________________________________________________________________________________________
conv2d_26 (Conv2D)              (None, 32, 32, 50)   62550       conv2d_25[0][0]                  
__________________________________________________________________________________________________
conv2d_19 (Conv2D)              (None, 32, 32, 50)   22550       conv2d_18[0][0]                  
__________________________________________________________________________________________________
conv2d_23 (Conv2D)              (None, 32, 32, 50)   40050       conv2d_22[0][0]                  
__________________________________________________________________________________________________
conv2d_27 (Conv2D)              (None, 32, 32, 50)   62550       conv2d_26[0][0]                  
__________________________________________________________________________________________________
concatenate_3 (Concatenate)     (None, 32, 32, 150)  0           conv2d_19[0][0]                  
                                                                 conv2d_23[0][0]                  
                                                                 conv2d_27[0][0]                  
__________________________________________________________________________________________________
conv2d_30 (Conv2D)              (None, 32, 32, 50)   187550      concatenate_3[0][0]              
__________________________________________________________________________________________________
conv2d_29 (Conv2D)              (None, 32, 32, 50)   120050      concatenate_3[0][0]              
__________________________________________________________________________________________________
conv2d_28 (Conv2D)              (None, 32, 32, 50)   67550       concatenate_3[0][0]              
__________________________________________________________________________________________________
hidden (Concatenate)            (None, 32, 32, 150)  0           conv2d_30[0][0]                  
                                                                 conv2d_29[0][0]                  
                                                                 conv2d_28[0][0]                  
__________________________________________________________________________________________________
hidden_secret (Conv2D)          (None, 32, 32, 3)    453         hidden[0][0]                     
__________________________________________________________________________________________________
revealing_model (Model)         (None, 32, 32, 3)    758703      hidden_secret[0][0]              
__________________________________________________________________________________________________
censorship_detection (Model)    (None, 1)            354721      hidden_secret[0][0]              
==================================================================================================
Total params: 3,005,377
Trainable params: 2,650,656
Non-trainable params: 354,721
__________________________________________________________________________________________________
epoch [ 1 / 50]
>> generating data
>> fitting
Epoch 1/1

  32/3200 [..............................] - ETA: 7:49 - loss: 0.4150 - hidden_secret_loss: 0.2266 - revealing_model_loss: 0.2511 - hidden_secret_mean_absolute_error: 0.4086 - revealing_model_mean_absolute_error: 0.4175
…
3168/3200 [============================>.] - ETA: 0s - loss: 0.0042 - hidden_secret_loss: 0.0019 - revealing_model_loss: 0.0031 - hidden_secret_mean_absolute_error: 0.0300 - revealing_model_mean_absolute_error: 0.0401
3200/3200 [==============================] - 22s 7ms/step - loss: 0.0042 - hidden_secret_loss: 0.0019 - revealing_model_loss: 0.0031 - hidden_secret_mean_absolute_error: 0.0300 - revealing_model_mean_absolute_error: 0.0401
__________________________________________________________________________________________________
Layer (type)                    Output Shape         Param #     Connected to                     
==================================================================================================
input_2 (InputLayer)            (None, 32, 32, 3)    0                                            
__________________________________________________________________________________________________
conv2d_1 (Conv2D)               (None, 32, 32, 50)   1400        input_2[0][0]                    
__________________________________________________________________________________________________
conv2d_5 (Conv2D)               (None, 32, 32, 50)   2450        input_2[0][0]                    
__________________________________________________________________________________________________
conv2d_9 (Conv2D)               (None, 32, 32, 50)   3800        input_2[0][0]                    
__________________________________________________________________________________________________
conv2d_2 (Conv2D)               (None, 32, 32, 50)   22550       conv2d_1[0][0]                   
__________________________________________________________________________________________________
conv2d_6 (Conv2D)               (None, 32, 32, 50)   40050       conv2d_5[0][0]                   
__________________________________________________________________________________________________
conv2d_10 (Conv2D)              (None, 32, 32, 50)   62550       conv2d_9[0][0]                   
__________________________________________________________________________________________________
conv2d_3 (Conv2D)               (None, 32, 32, 50)   22550       conv2d_2[0][0]                   
__________________________________________________________________________________________________
conv2d_7 (Conv2D)               (None, 32, 32, 50)   40050       conv2d_6[0][0]                   
__________________________________________________________________________________________________
conv2d_11 (Conv2D)              (None, 32, 32, 50)   62550       conv2d_10[0][0]                  
__________________________________________________________________________________________________
conv2d_4 (Conv2D)               (None, 32, 32, 50)   22550       conv2d_3[0][0]                   
__________________________________________________________________________________________________
conv2d_8 (Conv2D)               (None, 32, 32, 50)   40050       conv2d_7[0][0]                   
__________________________________________________________________________________________________
conv2d_12 (Conv2D)              (None, 32, 32, 50)   62550       conv2d_11[0][0]                  
__________________________________________________________________________________________________
concatenate_1 (Concatenate)     (None, 32, 32, 150)  0           conv2d_4[0][0]                   
                                                                 conv2d_8[0][0]                   
                                                                 conv2d_12[0][0]                  
__________________________________________________________________________________________________
conv2d_15 (Conv2D)              (None, 32, 32, 50)   187550      concatenate_1[0][0]              
__________________________________________________________________________________________________
conv2d_14 (Conv2D)              (None, 32, 32, 50)   120050      concatenate_1[0][0]              
__________________________________________________________________________________________________
conv2d_13 (Conv2D)              (None, 32, 32, 50)   67550       concatenate_1[0][0]              
__________________________________________________________________________________________________
input_1 (InputLayer)            (None, 32, 32, 3)    0                                            
__________________________________________________________________________________________________
prepared (Concatenate)          (None, 32, 32, 150)  0           conv2d_15[0][0]                  
                                                                 conv2d_14[0][0]                  
                                                                 conv2d_13[0][0]                  
__________________________________________________________________________________________________
concatenate_2 (Concatenate)     (None, 32, 32, 153)  0           input_1[0][0]                    
                                                                 prepared[0][0]                   
__________________________________________________________________________________________________
conv2d_16 (Conv2D)              (None, 32, 32, 50)   68900       concatenate_2[0][0]              
__________________________________________________________________________________________________
conv2d_20 (Conv2D)              (None, 32, 32, 50)   122450      concatenate_2[0][0]              
__________________________________________________________________________________________________
conv2d_24 (Conv2D)              (None, 32, 32, 50)   191300      concatenate_2[0][0]              
__________________________________________________________________________________________________
conv2d_17 (Conv2D)              (None, 32, 32, 50)   22550       conv2d_16[0][0]                  
__________________________________________________________________________________________________
conv2d_21 (Conv2D)              (None, 32, 32, 50)   40050       conv2d_20[0][0]                  
__________________________________________________________________________________________________
conv2d_25 (Conv2D)              (None, 32, 32, 50)   62550       conv2d_24[0][0]                  
__________________________________________________________________________________________________
conv2d_18 (Conv2D)              (None, 32, 32, 50)   22550       conv2d_17[0][0]                  
__________________________________________________________________________________________________
conv2d_22 (Conv2D)              (None, 32, 32, 50)   40050       conv2d_21[0][0]                  
__________________________________________________________________________________________________
conv2d_26 (Conv2D)              (None, 32, 32, 50)   62550       conv2d_25[0][0]                  
__________________________________________________________________________________________________
conv2d_19 (Conv2D)              (None, 32, 32, 50)   22550       conv2d_18[0][0]                  
__________________________________________________________________________________________________
conv2d_23 (Conv2D)              (None, 32, 32, 50)   40050       conv2d_22[0][0]                  
__________________________________________________________________________________________________
conv2d_27 (Conv2D)              (None, 32, 32, 50)   62550       conv2d_26[0][0]                  
__________________________________________________________________________________________________
concatenate_3 (Concatenate)     (None, 32, 32, 150)  0           conv2d_19[0][0]                  
                                                                 conv2d_23[0][0]                  
                                                                 conv2d_27[0][0]                  
__________________________________________________________________________________________________
conv2d_30 (Conv2D)              (None, 32, 32, 50)   187550      concatenate_3[0][0]              
__________________________________________________________________________________________________
conv2d_29 (Conv2D)              (None, 32, 32, 50)   120050      concatenate_3[0][0]              
__________________________________________________________________________________________________
conv2d_28 (Conv2D)              (None, 32, 32, 50)   67550       concatenate_3[0][0]              
__________________________________________________________________________________________________
hidden (Concatenate)            (None, 32, 32, 150)  0           conv2d_30[0][0]                  
                                                                 conv2d_29[0][0]                  
                                                                 conv2d_28[0][0]                  
__________________________________________________________________________________________________
hidden_secret (Conv2D)          (None, 32, 32, 3)    453         hidden[0][0]                     
__________________________________________________________________________________________________
revealing_model (Model)         (None, 32, 32, 3)    758703      hidden_secret[0][0]              
__________________________________________________________________________________________________
censorship_detection (Model)    (None, 1)            354721      hidden_secret[0][0]              
==================================================================================================
Total params: 3,005,377
Trainable params: 2,650,656
Non-trainable params: 354,721
__________________________________________________________________________________________________
__________________________________________________________________________________________________
Layer (type)                    Output Shape         Param #     Connected to                     
==================================================================================================
input_2 (InputLayer)            (None, 32, 32, 3)    0                                            
__________________________________________________________________________________________________
conv2d_1 (Conv2D)               (None, 32, 32, 50)   1400        input_2[0][0]                    
__________________________________________________________________________________________________
conv2d_5 (Conv2D)               (None, 32, 32, 50)   2450        input_2[0][0]                    
__________________________________________________________________________________________________
conv2d_9 (Conv2D)               (None, 32, 32, 50)   3800        input_2[0][0]                    
__________________________________________________________________________________________________
conv2d_2 (Conv2D)               (None, 32, 32, 50)   22550       conv2d_1[0][0]                   
__________________________________________________________________________________________________
conv2d_6 (Conv2D)               (None, 32, 32, 50)   40050       conv2d_5[0][0]                   
__________________________________________________________________________________________________
conv2d_10 (Conv2D)              (None, 32, 32, 50)   62550       conv2d_9[0][0]                   
__________________________________________________________________________________________________
conv2d_3 (Conv2D)               (None, 32, 32, 50)   22550       conv2d_2[0][0]                   
__________________________________________________________________________________________________
conv2d_7 (Conv2D)               (None, 32, 32, 50)   40050       conv2d_6[0][0]                   
__________________________________________________________________________________________________
conv2d_11 (Conv2D)              (None, 32, 32, 50)   62550       conv2d_10[0][0]                  
__________________________________________________________________________________________________
conv2d_4 (Conv2D)               (None, 32, 32, 50)   22550       conv2d_3[0][0]                   
__________________________________________________________________________________________________
conv2d_8 (Conv2D)               (None, 32, 32, 50)   40050       conv2d_7[0][0]                   
__________________________________________________________________________________________________
conv2d_12 (Conv2D)              (None, 32, 32, 50)   62550       conv2d_11[0][0]                  
__________________________________________________________________________________________________
concatenate_1 (Concatenate)     (None, 32, 32, 150)  0           conv2d_4[0][0]                   
                                                                 conv2d_8[0][0]                   
                                                                 conv2d_12[0][0]                  
__________________________________________________________________________________________________
conv2d_15 (Conv2D)              (None, 32, 32, 50)   187550      concatenate_1[0][0]              
__________________________________________________________________________________________________
conv2d_14 (Conv2D)              (None, 32, 32, 50)   120050      concatenate_1[0][0]              
__________________________________________________________________________________________________
conv2d_13 (Conv2D)              (None, 32, 32, 50)   67550       concatenate_1[0][0]              
__________________________________________________________________________________________________
input_1 (InputLayer)            (None, 32, 32, 3)    0                                            
__________________________________________________________________________________________________
prepared (Concatenate)          (None, 32, 32, 150)  0           conv2d_15[0][0]                  
                                                                 conv2d_14[0][0]                  
                                                                 conv2d_13[0][0]                  
__________________________________________________________________________________________________
concatenate_2 (Concatenate)     (None, 32, 32, 153)  0           input_1[0][0]                    
                                                                 prepared[0][0]                   
__________________________________________________________________________________________________
conv2d_16 (Conv2D)              (None, 32, 32, 50)   68900       concatenate_2[0][0]              
__________________________________________________________________________________________________
conv2d_20 (Conv2D)              (None, 32, 32, 50)   122450      concatenate_2[0][0]              
__________________________________________________________________________________________________
conv2d_24 (Conv2D)              (None, 32, 32, 50)   191300      concatenate_2[0][0]              
__________________________________________________________________________________________________
conv2d_17 (Conv2D)              (None, 32, 32, 50)   22550       conv2d_16[0][0]                  
__________________________________________________________________________________________________
conv2d_21 (Conv2D)              (None, 32, 32, 50)   40050       conv2d_20[0][0]                  
__________________________________________________________________________________________________
conv2d_25 (Conv2D)              (None, 32, 32, 50)   62550       conv2d_24[0][0]                  
__________________________________________________________________________________________________
conv2d_18 (Conv2D)              (None, 32, 32, 50)   22550       conv2d_17[0][0]                  
__________________________________________________________________________________________________
conv2d_22 (Conv2D)              (None, 32, 32, 50)   40050       conv2d_21[0][0]                  
__________________________________________________________________________________________________
conv2d_26 (Conv2D)              (None, 32, 32, 50)   62550       conv2d_25[0][0]                  
__________________________________________________________________________________________________
conv2d_19 (Conv2D)              (None, 32, 32, 50)   22550       conv2d_18[0][0]                  
__________________________________________________________________________________________________
conv2d_23 (Conv2D)              (None, 32, 32, 50)   40050       conv2d_22[0][0]                  
__________________________________________________________________________________________________
conv2d_27 (Conv2D)              (None, 32, 32, 50)   62550       conv2d_26[0][0]                  
__________________________________________________________________________________________________
concatenate_3 (Concatenate)     (None, 32, 32, 150)  0           conv2d_19[0][0]                  
                                                                 conv2d_23[0][0]                  
                                                                 conv2d_27[0][0]                  
__________________________________________________________________________________________________
conv2d_30 (Conv2D)              (None, 32, 32, 50)   187550      concatenate_3[0][0]              
__________________________________________________________________________________________________
conv2d_29 (Conv2D)              (None, 32, 32, 50)   120050      concatenate_3[0][0]              
__________________________________________________________________________________________________
conv2d_28 (Conv2D)              (None, 32, 32, 50)   67550       concatenate_3[0][0]              
__________________________________________________________________________________________________
hidden (Concatenate)            (None, 32, 32, 150)  0           conv2d_30[0][0]                  
                                                                 conv2d_29[0][0]                  
                                                                 conv2d_28[0][0]                  
__________________________________________________________________________________________________
hidden_secret (Conv2D)          (None, 32, 32, 3)    453         hidden[0][0]                     
__________________________________________________________________________________________________
revealing_model (Model)         (None, 32, 32, 3)    758703      hidden_secret[0][0]              
__________________________________________________________________________________________________
censorship_detection (Model)    (None, 1)            354721      hidden_secret[0][0]              
==================================================================================================
Total params: 3,005,377
Trainable params: 2,650,656
Non-trainable params: 354,721
__________________________________________________________________________________________________
__________________________________________________________________________________________________
Layer (type)                    Output Shape         Param #     Connected to                     
==================================================================================================
input_2 (InputLayer)            (None, 32, 32, 3)    0                                            
__________________________________________________________________________________________________
conv2d_1 (Conv2D)               (None, 32, 32, 50)   1400        input_2[0][0]                    
__________________________________________________________________________________________________
conv2d_5 (Conv2D)               (None, 32, 32, 50)   2450        input_2[0][0]                    
__________________________________________________________________________________________________
conv2d_9 (Conv2D)               (None, 32, 32, 50)   3800        input_2[0][0]                    
__________________________________________________________________________________________________
conv2d_2 (Conv2D)               (None, 32, 32, 50)   22550       conv2d_1[0][0]                   
__________________________________________________________________________________________________
conv2d_6 (Conv2D)               (None, 32, 32, 50)   40050       conv2d_5[0][0]                   
__________________________________________________________________________________________________
conv2d_10 (Conv2D)              (None, 32, 32, 50)   62550       conv2d_9[0][0]                   
__________________________________________________________________________________________________
conv2d_3 (Conv2D)               (None, 32, 32, 50)   22550       conv2d_2[0][0]                   
__________________________________________________________________________________________________
conv2d_7 (Conv2D)               (None, 32, 32, 50)   40050       conv2d_6[0][0]                   
__________________________________________________________________________________________________
conv2d_11 (Conv2D)              (None, 32, 32, 50)   62550       conv2d_10[0][0]                  
__________________________________________________________________________________________________
conv2d_4 (Conv2D)               (None, 32, 32, 50)   22550       conv2d_3[0][0]                   
__________________________________________________________________________________________________
conv2d_8 (Conv2D)               (None, 32, 32, 50)   40050       conv2d_7[0][0]                   
__________________________________________________________________________________________________
conv2d_12 (Conv2D)              (None, 32, 32, 50)   62550       conv2d_11[0][0]                  
__________________________________________________________________________________________________
concatenate_1 (Concatenate)     (None, 32, 32, 150)  0           conv2d_4[0][0]                   
                                                                 conv2d_8[0][0]                   
                                                                 conv2d_12[0][0]                  
__________________________________________________________________________________________________
conv2d_15 (Conv2D)              (None, 32, 32, 50)   187550      concatenate_1[0][0]              
__________________________________________________________________________________________________
conv2d_14 (Conv2D)              (None, 32, 32, 50)   120050      concatenate_1[0][0]              
__________________________________________________________________________________________________
conv2d_13 (Conv2D)              (None, 32, 32, 50)   67550       concatenate_1[0][0]              
__________________________________________________________________________________________________
input_1 (InputLayer)            (None, 32, 32, 3)    0                                            
__________________________________________________________________________________________________
prepared (Concatenate)          (None, 32, 32, 150)  0           conv2d_15[0][0]                  
                                                                 conv2d_14[0][0]                  
                                                                 conv2d_13[0][0]                  
__________________________________________________________________________________________________
concatenate_2 (Concatenate)     (None, 32, 32, 153)  0           input_1[0][0]                    
                                                                 prepared[0][0]                   
__________________________________________________________________________________________________
conv2d_16 (Conv2D)              (None, 32, 32, 50)   68900       concatenate_2[0][0]              
__________________________________________________________________________________________________
conv2d_20 (Conv2D)              (None, 32, 32, 50)   122450      concatenate_2[0][0]              
__________________________________________________________________________________________________
conv2d_24 (Conv2D)              (None, 32, 32, 50)   191300      concatenate_2[0][0]              
__________________________________________________________________________________________________
conv2d_17 (Conv2D)              (None, 32, 32, 50)   22550       conv2d_16[0][0]                  
__________________________________________________________________________________________________
conv2d_21 (Conv2D)              (None, 32, 32, 50)   40050       conv2d_20[0][0]                  
__________________________________________________________________________________________________
conv2d_25 (Conv2D)              (None, 32, 32, 50)   62550       conv2d_24[0][0]                  
__________________________________________________________________________________________________
conv2d_18 (Conv2D)              (None, 32, 32, 50)   22550       conv2d_17[0][0]                  
__________________________________________________________________________________________________
conv2d_22 (Conv2D)              (None, 32, 32, 50)   40050       conv2d_21[0][0]                  
__________________________________________________________________________________________________
conv2d_26 (Conv2D)              (None, 32, 32, 50)   62550       conv2d_25[0][0]                  
__________________________________________________________________________________________________
conv2d_19 (Conv2D)              (None, 32, 32, 50)   22550       conv2d_18[0][0]                  
__________________________________________________________________________________________________
conv2d_23 (Conv2D)              (None, 32, 32, 50)   40050       conv2d_22[0][0]                  
__________________________________________________________________________________________________
conv2d_27 (Conv2D)              (None, 32, 32, 50)   62550       conv2d_26[0][0]                  
__________________________________________________________________________________________________
concatenate_3 (Concatenate)     (None, 32, 32, 150)  0           conv2d_19[0][0]                  
                                                                 conv2d_23[0][0]                  
                                                                 conv2d_27[0][0]                  
__________________________________________________________________________________________________
conv2d_30 (Conv2D)              (None, 32, 32, 50)   187550      concatenate_3[0][0]              
__________________________________________________________________________________________________
conv2d_29 (Conv2D)              (None, 32, 32, 50)   120050      concatenate_3[0][0]              
__________________________________________________________________________________________________
conv2d_28 (Conv2D)              (None, 32, 32, 50)   67550       concatenate_3[0][0]              
__________________________________________________________________________________________________
hidden (Concatenate)            (None, 32, 32, 150)  0           conv2d_30[0][0]                  
                                                                 conv2d_29[0][0]                  
                                                                 conv2d_28[0][0]                  
__________________________________________________________________________________________________
hidden_secret (Conv2D)          (None, 32, 32, 3)    453         hidden[0][0]                     
__________________________________________________________________________________________________
revealing_model (Model)         (None, 32, 32, 3)    758703      hidden_secret[0][0]              
__________________________________________________________________________________________________
censorship_detection (Model)    (None, 1)            354721      hidden_secret[0][0]              
==================================================================================================
Total params: 3,005,377
Trainable params: 2,650,656
Non-trainable params: 354,721
__________________________________________________________________________________________________
__________________________________________________________________________________________________
Layer (type)                    Output Shape         Param #     Connected to                     
==================================================================================================
input_2 (InputLayer)            (None, 32, 32, 3)    0                                            
__________________________________________________________________________________________________
conv2d_1 (Conv2D)               (None, 32, 32, 50)   1400        input_2[0][0]                    
__________________________________________________________________________________________________
conv2d_5 (Conv2D)               (None, 32, 32, 50)   2450        input_2[0][0]                    
__________________________________________________________________________________________________
conv2d_9 (Conv2D)               (None, 32, 32, 50)   3800        input_2[0][0]                    
__________________________________________________________________________________________________
conv2d_2 (Conv2D)               (None, 32, 32, 50)   22550       conv2d_1[0][0]                   
__________________________________________________________________________________________________
conv2d_6 (Conv2D)               (None, 32, 32, 50)   40050       conv2d_5[0][0]                   
__________________________________________________________________________________________________
conv2d_10 (Conv2D)              (None, 32, 32, 50)   62550       conv2d_9[0][0]                   
__________________________________________________________________________________________________
conv2d_3 (Conv2D)               (None, 32, 32, 50)   22550       conv2d_2[0][0]                   
__________________________________________________________________________________________________
conv2d_7 (Conv2D)               (None, 32, 32, 50)   40050       conv2d_6[0][0]                   
__________________________________________________________________________________________________
conv2d_11 (Conv2D)              (None, 32, 32, 50)   62550       conv2d_10[0][0]                  
__________________________________________________________________________________________________
conv2d_4 (Conv2D)               (None, 32, 32, 50)   22550       conv2d_3[0][0]                   
__________________________________________________________________________________________________
conv2d_8 (Conv2D)               (None, 32, 32, 50)   40050       conv2d_7[0][0]                   
__________________________________________________________________________________________________
conv2d_12 (Conv2D)              (None, 32, 32, 50)   62550       conv2d_11[0][0]                  
__________________________________________________________________________________________________
concatenate_1 (Concatenate)     (None, 32, 32, 150)  0           conv2d_4[0][0]                   
                                                                 conv2d_8[0][0]                   
                                                                 conv2d_12[0][0]                  
__________________________________________________________________________________________________
conv2d_15 (Conv2D)              (None, 32, 32, 50)   187550      concatenate_1[0][0]              
__________________________________________________________________________________________________
conv2d_14 (Conv2D)              (None, 32, 32, 50)   120050      concatenate_1[0][0]              
__________________________________________________________________________________________________
conv2d_13 (Conv2D)              (None, 32, 32, 50)   67550       concatenate_1[0][0]              
__________________________________________________________________________________________________
input_1 (InputLayer)            (None, 32, 32, 3)    0                                            
__________________________________________________________________________________________________
prepared (Concatenate)          (None, 32, 32, 150)  0           conv2d_15[0][0]                  
                                                                 conv2d_14[0][0]                  
                                                                 conv2d_13[0][0]                  
__________________________________________________________________________________________________
concatenate_2 (Concatenate)     (None, 32, 32, 153)  0           input_1[0][0]                    
                                                                 prepared[0][0]                   
__________________________________________________________________________________________________
conv2d_16 (Conv2D)              (None, 32, 32, 50)   68900       concatenate_2[0][0]              
__________________________________________________________________________________________________
conv2d_20 (Conv2D)              (None, 32, 32, 50)   122450      concatenate_2[0][0]              
__________________________________________________________________________________________________
conv2d_24 (Conv2D)              (None, 32, 32, 50)   191300      concatenate_2[0][0]              
__________________________________________________________________________________________________
conv2d_17 (Conv2D)              (None, 32, 32, 50)   22550       conv2d_16[0][0]                  
__________________________________________________________________________________________________
conv2d_21 (Conv2D)              (None, 32, 32, 50)   40050       conv2d_20[0][0]                  
__________________________________________________________________________________________________
conv2d_25 (Conv2D)              (None, 32, 32, 50)   62550       conv2d_24[0][0]                  
__________________________________________________________________________________________________
conv2d_18 (Conv2D)              (None, 32, 32, 50)   22550       conv2d_17[0][0]                  
__________________________________________________________________________________________________
conv2d_22 (Conv2D)              (None, 32, 32, 50)   40050       conv2d_21[0][0]                  
__________________________________________________________________________________________________
conv2d_26 (Conv2D)              (None, 32, 32, 50)   62550       conv2d_25[0][0]                  
__________________________________________________________________________________________________
conv2d_19 (Conv2D)              (None, 32, 32, 50)   22550       conv2d_18[0][0]                  
__________________________________________________________________________________________________
conv2d_23 (Conv2D)              (None, 32, 32, 50)   40050       conv2d_22[0][0]                  
__________________________________________________________________________________________________
conv2d_27 (Conv2D)              (None, 32, 32, 50)   62550       conv2d_26[0][0]                  
__________________________________________________________________________________________________
concatenate_3 (Concatenate)     (None, 32, 32, 150)  0           conv2d_19[0][0]                  
                                                                 conv2d_23[0][0]                  
                                                                 conv2d_27[0][0]                  
__________________________________________________________________________________________________
conv2d_30 (Conv2D)              (None, 32, 32, 50)   187550      concatenate_3[0][0]              
__________________________________________________________________________________________________
conv2d_29 (Conv2D)              (None, 32, 32, 50)   120050      concatenate_3[0][0]              
__________________________________________________________________________________________________
conv2d_28 (Conv2D)              (None, 32, 32, 50)   67550       concatenate_3[0][0]              
__________________________________________________________________________________________________
hidden (Concatenate)            (None, 32, 32, 150)  0           conv2d_30[0][0]                  
                                                                 conv2d_29[0][0]                  
                                                                 conv2d_28[0][0]                  
__________________________________________________________________________________________________
hidden_secret (Conv2D)          (None, 32, 32, 3)    453         hidden[0][0]                     
__________________________________________________________________________________________________
revealing_model (Model)         (None, 32, 32, 3)    758703      hidden_secret[0][0]              
__________________________________________________________________________________________________
censorship_detection (Model)    (None, 1)            354721      hidden_secret[0][0]              
==================================================================================================
Total params: 3,005,377
Trainable params: 2,650,656
Non-trainable params: 354,721
__________________________________________________________________________________________________
__________________________________________________________________________________________________
Layer (type)                    Output Shape         Param #     Connected to                     
==================================================================================================
input_2 (InputLayer)            (None, 32, 32, 3)    0                                            
__________________________________________________________________________________________________
conv2d_1 (Conv2D)               (None, 32, 32, 50)   1400        input_2[0][0]                    
__________________________________________________________________________________________________
conv2d_5 (Conv2D)               (None, 32, 32, 50)   2450        input_2[0][0]                    
__________________________________________________________________________________________________
conv2d_9 (Conv2D)               (None, 32, 32, 50)   3800        input_2[0][0]                    
__________________________________________________________________________________________________
conv2d_2 (Conv2D)               (None, 32, 32, 50)   22550       conv2d_1[0][0]                   
__________________________________________________________________________________________________
conv2d_6 (Conv2D)               (None, 32, 32, 50)   40050       conv2d_5[0][0]                   
__________________________________________________________________________________________________
conv2d_10 (Conv2D)              (None, 32, 32, 50)   62550       conv2d_9[0][0]                   
__________________________________________________________________________________________________
conv2d_3 (Conv2D)               (None, 32, 32, 50)   22550       conv2d_2[0][0]                   
__________________________________________________________________________________________________
conv2d_7 (Conv2D)               (None, 32, 32, 50)   40050       conv2d_6[0][0]                   
__________________________________________________________________________________________________
conv2d_11 (Conv2D)              (None, 32, 32, 50)   62550       conv2d_10[0][0]                  
__________________________________________________________________________________________________
conv2d_4 (Conv2D)               (None, 32, 32, 50)   22550       conv2d_3[0][0]                   
__________________________________________________________________________________________________
conv2d_8 (Conv2D)               (None, 32, 32, 50)   40050       conv2d_7[0][0]                   
__________________________________________________________________________________________________
conv2d_12 (Conv2D)              (None, 32, 32, 50)   62550       conv2d_11[0][0]                  
__________________________________________________________________________________________________
concatenate_1 (Concatenate)     (None, 32, 32, 150)  0           conv2d_4[0][0]                   
                                                                 conv2d_8[0][0]                   
                                                                 conv2d_12[0][0]                  
__________________________________________________________________________________________________
conv2d_15 (Conv2D)              (None, 32, 32, 50)   187550      concatenate_1[0][0]              
__________________________________________________________________________________________________
conv2d_14 (Conv2D)              (None, 32, 32, 50)   120050      concatenate_1[0][0]              
__________________________________________________________________________________________________
conv2d_13 (Conv2D)              (None, 32, 32, 50)   67550       concatenate_1[0][0]              
__________________________________________________________________________________________________
input_1 (InputLayer)            (None, 32, 32, 3)    0                                            
__________________________________________________________________________________________________
prepared (Concatenate)          (None, 32, 32, 150)  0           conv2d_15[0][0]                  
                                                                 conv2d_14[0][0]                  
                                                                 conv2d_13[0][0]                  
__________________________________________________________________________________________________
concatenate_2 (Concatenate)     (None, 32, 32, 153)  0           input_1[0][0]                    
                                                                 prepared[0][0]                   
__________________________________________________________________________________________________
conv2d_16 (Conv2D)              (None, 32, 32, 50)   68900       concatenate_2[0][0]              
__________________________________________________________________________________________________
conv2d_20 (Conv2D)              (None, 32, 32, 50)   122450      concatenate_2[0][0]              
__________________________________________________________________________________________________
conv2d_24 (Conv2D)              (None, 32, 32, 50)   191300      concatenate_2[0][0]              
__________________________________________________________________________________________________
conv2d_17 (Conv2D)              (None, 32, 32, 50)   22550       conv2d_16[0][0]                  
__________________________________________________________________________________________________
conv2d_21 (Conv2D)              (None, 32, 32, 50)   40050       conv2d_20[0][0]                  
__________________________________________________________________________________________________
conv2d_25 (Conv2D)              (None, 32, 32, 50)   62550       conv2d_24[0][0]                  
__________________________________________________________________________________________________
conv2d_18 (Conv2D)              (None, 32, 32, 50)   22550       conv2d_17[0][0]                  
__________________________________________________________________________________________________
conv2d_22 (Conv2D)              (None, 32, 32, 50)   40050       conv2d_21[0][0]                  
__________________________________________________________________________________________________
conv2d_26 (Conv2D)              (None, 32, 32, 50)   62550       conv2d_25[0][0]                  
__________________________________________________________________________________________________
conv2d_19 (Conv2D)              (None, 32, 32, 50)   22550       conv2d_18[0][0]                  
__________________________________________________________________________________________________
conv2d_23 (Conv2D)              (None, 32, 32, 50)   40050       conv2d_22[0][0]                  
__________________________________________________________________________________________________
conv2d_27 (Conv2D)              (None, 32, 32, 50)   62550       conv2d_26[0][0]                  
__________________________________________________________________________________________________
concatenate_3 (Concatenate)     (None, 32, 32, 150)  0           conv2d_19[0][0]                  
                                                                 conv2d_23[0][0]                  
                                                                 conv2d_27[0][0]                  
__________________________________________________________________________________________________
conv2d_30 (Conv2D)              (None, 32, 32, 50)   187550      concatenate_3[0][0]              
__________________________________________________________________________________________________
conv2d_29 (Conv2D)              (None, 32, 32, 50)   120050      concatenate_3[0][0]              
__________________________________________________________________________________________________
conv2d_28 (Conv2D)              (None, 32, 32, 50)   67550       concatenate_3[0][0]              
__________________________________________________________________________________________________
hidden (Concatenate)            (None, 32, 32, 150)  0           conv2d_30[0][0]                  
                                                                 conv2d_29[0][0]                  
                                                                 conv2d_28[0][0]                  
__________________________________________________________________________________________________
hidden_secret (Conv2D)          (None, 32, 32, 3)    453         hidden[0][0]                     
__________________________________________________________________________________________________
revealing_model (Model)         (None, 32, 32, 3)    758703      hidden_secret[0][0]              
__________________________________________________________________________________________________
censorship_detection (Model)    (None, 1)            354721      hidden_secret[0][0]              
==================================================================================================
Total params: 3,005,377
Trainable params: 2,650,656
Non-trainable params: 354,721
__________________________________________________________________________________________________
[[[[0.00301423 0.00275279 0.00272203]
   [0.00313726 0.00287582 0.00282968]
   [0.00275279 0.00256824 0.00262976]
…
  [[2.9219533e-04 4.1522496e-04 6.1514811e-04]
   [6.1514809e-05 2.7681663e-04 4.9211847e-04]
   [1.1841600e-03 1.1995387e-03 1.4609767e-03]
   ...
   [… ...
   [… ...
   [2.8758172e-03 2.8758172e-03 2.9834684e-03]
   [2.8296812e-03 2.8143025e-03 2.9373320e-03]
   [2.8911959e-03 2.9065746e-03 3.0449831e-03]]]]
__________________________________________________________________________________________________
Layer (type)                    Output Shape         Param #     Connected to                     
==================================================================================================
input_2 (InputLayer)            (None, 32, 32, 3)    0                                            
__________________________________________________________________________________________________
conv2d_1 (Conv2D)               (None, 32, 32, 50)   1400        input_2[0][0]                    
__________________________________________________________________________________________________
conv2d_5 (Conv2D)               (None, 32, 32, 50)   2450        input_2[0][0]                    
__________________________________________________________________________________________________
conv2d_9 (Conv2D)               (None, 32, 32, 50)   3800        input_2[0][0]                    
__________________________________________________________________________________________________
conv2d_2 (Conv2D)               (None, 32, 32, 50)   22550       conv2d_1[0][0]                   
__________________________________________________________________________________________________
conv2d_6 (Conv2D)               (None, 32, 32, 50)   40050       conv2d_5[0][0]                   
__________________________________________________________________________________________________
conv2d_10 (Conv2D)              (None, 32, 32, 50)   62550       conv2d_9[0][0]                   
__________________________________________________________________________________________________
conv2d_3 (Conv2D)               (None, 32, 32, 50)   22550       conv2d_2[0][0]                   
__________________________________________________________________________________________________
conv2d_7 (Conv2D)               (None, 32, 32, 50)   40050       conv2d_6[0][0]                   
__________________________________________________________________________________________________
conv2d_11 (Conv2D)              (None, 32, 32, 50)   62550       conv2d_10[0][0]                  
__________________________________________________________________________________________________
conv2d_4 (Conv2D)               (None, 32, 32, 50)   22550       conv2d_3[0][0]                   
__________________________________________________________________________________________________
conv2d_8 (Conv2D)               (None, 32, 32, 50)   40050       conv2d_7[0][0]                   
__________________________________________________________________________________________________
conv2d_12 (Conv2D)              (None, 32, 32, 50)   62550       conv2d_11[0][0]                  
__________________________________________________________________________________________________
concatenate_1 (Concatenate)     (None, 32, 32, 150)  0           conv2d_4[0][0]                   
                                                                 conv2d_8[0][0]                   
                                                                 conv2d_12[0][0]                  
__________________________________________________________________________________________________
conv2d_15 (Conv2D)              (None, 32, 32, 50)   187550      concatenate_1[0][0]              
__________________________________________________________________________________________________
conv2d_14 (Conv2D)              (None, 32, 32, 50)   120050      concatenate_1[0][0]              
__________________________________________________________________________________________________
conv2d_13 (Conv2D)              (None, 32, 32, 50)   67550       concatenate_1[0][0]              
__________________________________________________________________________________________________
input_1 (InputLayer)            (None, 32, 32, 3)    0                                            
__________________________________________________________________________________________________
prepared (Concatenate)          (None, 32, 32, 150)  0           conv2d_15[0][0]                  
                                                                 conv2d_14[0][0]                  
                                                                 conv2d_13[0][0]                  
__________________________________________________________________________________________________
concatenate_2 (Concatenate)     (None, 32, 32, 153)  0           input_1[0][0]                    
                                                                 prepared[0][0]                   
__________________________________________________________________________________________________
conv2d_16 (Conv2D)              (None, 32, 32, 50)   68900       concatenate_2[0][0]              
__________________________________________________________________________________________________
conv2d_20 (Conv2D)              (None, 32, 32, 50)   122450      concatenate_2[0][0]              
__________________________________________________________________________________________________
conv2d_24 (Conv2D)              (None, 32, 32, 50)   191300      concatenate_2[0][0]              
__________________________________________________________________________________________________
conv2d_17 (Conv2D)              (None, 32, 32, 50)   22550       conv2d_16[0][0]                  
__________________________________________________________________________________________________
conv2d_21 (Conv2D)              (None, 32, 32, 50)   40050       conv2d_20[0][0]                  
__________________________________________________________________________________________________
conv2d_25 (Conv2D)              (None, 32, 32, 50)   62550       conv2d_24[0][0]                  
__________________________________________________________________________________________________
conv2d_18 (Conv2D)              (None, 32, 32, 50)   22550       conv2d_17[0][0]                  
__________________________________________________________________________________________________
conv2d_22 (Conv2D)              (None, 32, 32, 50)   40050       conv2d_21[0][0]                  
__________________________________________________________________________________________________
conv2d_26 (Conv2D)              (None, 32, 32, 50)   62550       conv2d_25[0][0]                  
__________________________________________________________________________________________________
conv2d_19 (Conv2D)              (None, 32, 32, 50)   22550       conv2d_18[0][0]                  
__________________________________________________________________________________________________
conv2d_23 (Conv2D)              (None, 32, 32, 50)   40050       conv2d_22[0][0]                  
__________________________________________________________________________________________________
conv2d_27 (Conv2D)              (None, 32, 32, 50)   62550       conv2d_26[0][0]                  
__________________________________________________________________________________________________
concatenate_3 (Concatenate)     (None, 32, 32, 150)  0           conv2d_19[0][0]                  
                                                                 conv2d_23[0][0]                  
                                                                 conv2d_27[0][0]                  
__________________________________________________________________________________________________
conv2d_30 (Conv2D)              (None, 32, 32, 50)   187550      concatenate_3[0][0]              
__________________________________________________________________________________________________
conv2d_29 (Conv2D)              (None, 32, 32, 50)   120050      concatenate_3[0][0]              
__________________________________________________________________________________________________
conv2d_28 (Conv2D)              (None, 32, 32, 50)   67550       concatenate_3[0][0]              
__________________________________________________________________________________________________
hidden (Concatenate)            (None, 32, 32, 150)  0           conv2d_30[0][0]                  
                                                                 conv2d_29[0][0]                  
                                                                 conv2d_28[0][0]                  
__________________________________________________________________________________________________
hidden_secret (Conv2D)          (None, 32, 32, 3)    453         hidden[0][0]                     
__________________________________________________________________________________________________
revealing_model (Model)         (None, 32, 32, 3)    758703      hidden_secret[0][0]              
__________________________________________________________________________________________________
censorship_detection (Model)    (None, 1)            354721      hidden_secret[0][0]              
==================================================================================================
Total params: 3,005,377
Trainable params: 2,650,656
Non-trainable params: 354,721
__________________________________________________________________________________________________
__________________________________________________________________________________________________
Layer (type)                    Output Shape         Param #     Connected to                     
==================================================================================================
input_2 (InputLayer)            (None, 32, 32, 3)    0                                            
__________________________________________________________________________________________________
conv2d_1 (Conv2D)               (None, 32, 32, 50)   1400        input_2[0][0]                    
__________________________________________________________________________________________________
conv2d_5 (Conv2D)               (None, 32, 32, 50)   2450        input_2[0][0]                    
__________________________________________________________________________________________________
conv2d_9 (Conv2D)               (None, 32, 32, 50)   3800        input_2[0][0]                    
__________________________________________________________________________________________________
conv2d_2 (Conv2D)               (None, 32, 32, 50)   22550       conv2d_1[0][0]                   
__________________________________________________________________________________________________
conv2d_6 (Conv2D)               (None, 32, 32, 50)   40050       conv2d_5[0][0]                   
__________________________________________________________________________________________________
conv2d_10 (Conv2D)              (None, 32, 32, 50)   62550       conv2d_9[0][0]                   
__________________________________________________________________________________________________
conv2d_3 (Conv2D)               (None, 32, 32, 50)   22550       conv2d_2[0][0]                   
__________________________________________________________________________________________________
conv2d_7 (Conv2D)               (None, 32, 32, 50)   40050       conv2d_6[0][0]                   
__________________________________________________________________________________________________
conv2d_11 (Conv2D)              (None, 32, 32, 50)   62550       conv2d_10[0][0]                  
__________________________________________________________________________________________________
conv2d_4 (Conv2D)               (None, 32, 32, 50)   22550       conv2d_3[0][0]                   
__________________________________________________________________________________________________
conv2d_8 (Conv2D)               (None, 32, 32, 50)   40050       conv2d_7[0][0]                   
__________________________________________________________________________________________________
conv2d_12 (Conv2D)              (None, 32, 32, 50)   62550       conv2d_11[0][0]                  
__________________________________________________________________________________________________
concatenate_1 (Concatenate)     (None, 32, 32, 150)  0           conv2d_4[0][0]                   
                                                                 conv2d_8[0][0]                   
                                                                 conv2d_12[0][0]                  
__________________________________________________________________________________________________
conv2d_15 (Conv2D)              (None, 32, 32, 50)   187550      concatenate_1[0][0]              
__________________________________________________________________________________________________
conv2d_14 (Conv2D)              (None, 32, 32, 50)   120050      concatenate_1[0][0]              
__________________________________________________________________________________________________
conv2d_13 (Conv2D)              (None, 32, 32, 50)   67550       concatenate_1[0][0]              
__________________________________________________________________________________________________
input_1 (InputLayer)            (None, 32, 32, 3)    0                                            
__________________________________________________________________________________________________
prepared (Concatenate)          (None, 32, 32, 150)  0           conv2d_15[0][0]                  
                                                                 conv2d_14[0][0]                  
                                                                 conv2d_13[0][0]                  
__________________________________________________________________________________________________
concatenate_2 (Concatenate)     (None, 32, 32, 153)  0           input_1[0][0]                    
                                                                 prepared[0][0]                   
__________________________________________________________________________________________________
conv2d_16 (Conv2D)              (None, 32, 32, 50)   68900       concatenate_2[0][0]              
__________________________________________________________________________________________________
conv2d_20 (Conv2D)              (None, 32, 32, 50)   122450      concatenate_2[0][0]              
__________________________________________________________________________________________________
conv2d_24 (Conv2D)              (None, 32, 32, 50)   191300      concatenate_2[0][0]              
__________________________________________________________________________________________________
conv2d_17 (Conv2D)              (None, 32, 32, 50)   22550       conv2d_16[0][0]                  
__________________________________________________________________________________________________
conv2d_21 (Conv2D)              (None, 32, 32, 50)   40050       conv2d_20[0][0]                  
__________________________________________________________________________________________________
conv2d_25 (Conv2D)              (None, 32, 32, 50)   62550       conv2d_24[0][0]                  
__________________________________________________________________________________________________
conv2d_18 (Conv2D)              (None, 32, 32, 50)   22550       conv2d_17[0][0]                  
__________________________________________________________________________________________________
conv2d_22 (Conv2D)              (None, 32, 32, 50)   40050       conv2d_21[0][0]                  
__________________________________________________________________________________________________
conv2d_26 (Conv2D)              (None, 32, 32, 50)   62550       conv2d_25[0][0]                  
__________________________________________________________________________________________________
conv2d_19 (Conv2D)              (None, 32, 32, 50)   22550       conv2d_18[0][0]                  
__________________________________________________________________________________________________
conv2d_23 (Conv2D)              (None, 32, 32, 50)   40050       conv2d_22[0][0]                  
__________________________________________________________________________________________________
conv2d_27 (Conv2D)              (None, 32, 32, 50)   62550       conv2d_26[0][0]                  
__________________________________________________________________________________________________
concatenate_3 (Concatenate)     (None, 32, 32, 150)  0           conv2d_19[0][0]                  
                                                                 conv2d_23[0][0]                  
                                                                 conv2d_27[0][0]                  
__________________________________________________________________________________________________
conv2d_30 (Conv2D)              (None, 32, 32, 50)   187550      concatenate_3[0][0]              
__________________________________________________________________________________________________
conv2d_29 (Conv2D)              (None, 32, 32, 50)   120050      concatenate_3[0][0]              
__________________________________________________________________________________________________
conv2d_28 (Conv2D)              (None, 32, 32, 50)   67550       concatenate_3[0][0]              
__________________________________________________________________________________________________
hidden (Concatenate)            (None, 32, 32, 150)  0           conv2d_30[0][0]                  
                                                                 conv2d_29[0][0]                  
                                                                 conv2d_28[0][0]                  
__________________________________________________________________________________________________
hidden_secret (Conv2D)          (None, 32, 32, 3)    453         hidden[0][0]                     
__________________________________________________________________________________________________
revealing_model (Model)         (None, 32, 32, 3)    758703      hidden_secret[0][0]              
__________________________________________________________________________________________________
censorship_detection (Model)    (None, 1)            354721      hidden_secret[0][0]              
==================================================================================================
Total params: 3,005,377
Trainable params: 2,650,656
Non-trainable params: 354,721
__________________________________________________________________________________________________
__________________________________________________________________________________________________
Layer (type)                    Output Shape         Param #     Connected to                     
==================================================================================================
input_2 (InputLayer)            (None, 32, 32, 3)    0                                            
__________________________________________________________________________________________________
conv2d_1 (Conv2D)               (None, 32, 32, 50)   1400        input_2[0][0]                    
__________________________________________________________________________________________________
conv2d_5 (Conv2D)               (None, 32, 32, 50)   2450        input_2[0][0]                    
__________________________________________________________________________________________________
conv2d_9 (Conv2D)               (None, 32, 32, 50)   3800        input_2[0][0]                    
__________________________________________________________________________________________________
conv2d_2 (Conv2D)               (None, 32, 32, 50)   22550       conv2d_1[0][0]                   
__________________________________________________________________________________________________
conv2d_6 (Conv2D)               (None, 32, 32, 50)   40050       conv2d_5[0][0]                   
__________________________________________________________________________________________________
conv2d_10 (Conv2D)              (None, 32, 32, 50)   62550       conv2d_9[0][0]                   
__________________________________________________________________________________________________
conv2d_3 (Conv2D)               (None, 32, 32, 50)   22550       conv2d_2[0][0]                   
__________________________________________________________________________________________________
conv2d_7 (Conv2D)               (None, 32, 32, 50)   40050       conv2d_6[0][0]                   
__________________________________________________________________________________________________
conv2d_11 (Conv2D)              (None, 32, 32, 50)   62550       conv2d_10[0][0]                  
__________________________________________________________________________________________________
conv2d_4 (Conv2D)               (None, 32, 32, 50)   22550       conv2d_3[0][0]                   
__________________________________________________________________________________________________
conv2d_8 (Conv2D)               (None, 32, 32, 50)   40050       conv2d_7[0][0]                   
__________________________________________________________________________________________________
conv2d_12 (Conv2D)              (None, 32, 32, 50)   62550       conv2d_11[0][0]                  
__________________________________________________________________________________________________
concatenate_1 (Concatenate)     (None, 32, 32, 150)  0           conv2d_4[0][0]                   
                                                                 conv2d_8[0][0]                   
                                                                 conv2d_12[0][0]                  
__________________________________________________________________________________________________
conv2d_15 (Conv2D)              (None, 32, 32, 50)   187550      concatenate_1[0][0]              
__________________________________________________________________________________________________
conv2d_14 (Conv2D)              (None, 32, 32, 50)   120050      concatenate_1[0][0]              
__________________________________________________________________________________________________
conv2d_13 (Conv2D)              (None, 32, 32, 50)   67550       concatenate_1[0][0]              
__________________________________________________________________________________________________
input_1 (InputLayer)            (None, 32, 32, 3)    0                                            
__________________________________________________________________________________________________
prepared (Concatenate)          (None, 32, 32, 150)  0           conv2d_15[0][0]                  
                                                                 conv2d_14[0][0]                  
                                                                 conv2d_13[0][0]                  
__________________________________________________________________________________________________
concatenate_2 (Concatenate)     (None, 32, 32, 153)  0           input_1[0][0]                    
                                                                 prepared[0][0]                   
__________________________________________________________________________________________________
conv2d_16 (Conv2D)              (None, 32, 32, 50)   68900       concatenate_2[0][0]              
__________________________________________________________________________________________________
conv2d_20 (Conv2D)              (None, 32, 32, 50)   122450      concatenate_2[0][0]              
__________________________________________________________________________________________________
conv2d_24 (Conv2D)              (None, 32, 32, 50)   191300      concatenate_2[0][0]              
__________________________________________________________________________________________________
conv2d_17 (Conv2D)              (None, 32, 32, 50)   22550       conv2d_16[0][0]                  
__________________________________________________________________________________________________
conv2d_21 (Conv2D)              (None, 32, 32, 50)   40050       conv2d_20[0][0]                  
__________________________________________________________________________________________________
conv2d_25 (Conv2D)              (None, 32, 32, 50)   62550       conv2d_24[0][0]                  
__________________________________________________________________________________________________
conv2d_18 (Conv2D)              (None, 32, 32, 50)   22550       conv2d_17[0][0]                  
__________________________________________________________________________________________________
conv2d_22 (Conv2D)              (None, 32, 32, 50)   40050       conv2d_21[0][0]                  
__________________________________________________________________________________________________
conv2d_26 (Conv2D)              (None, 32, 32, 50)   62550       conv2d_25[0][0]                  
__________________________________________________________________________________________________
conv2d_19 (Conv2D)              (None, 32, 32, 50)   22550       conv2d_18[0][0]                  
__________________________________________________________________________________________________
conv2d_23 (Conv2D)              (None, 32, 32, 50)   40050       conv2d_22[0][0]                  
__________________________________________________________________________________________________
conv2d_27 (Conv2D)              (None, 32, 32, 50)   62550       conv2d_26[0][0]                  
__________________________________________________________________________________________________
concatenate_3 (Concatenate)     (None, 32, 32, 150)  0           conv2d_19[0][0]                  
                                                                 conv2d_23[0][0]                  
                                                                 conv2d_27[0][0]                  
__________________________________________________________________________________________________
conv2d_30 (Conv2D)              (None, 32, 32, 50)   187550      concatenate_3[0][0]              
__________________________________________________________________________________________________
conv2d_29 (Conv2D)              (None, 32, 32, 50)   120050      concatenate_3[0][0]              
__________________________________________________________________________________________________
conv2d_28 (Conv2D)              (None, 32, 32, 50)   67550       concatenate_3[0][0]              
__________________________________________________________________________________________________
hidden (Concatenate)            (None, 32, 32, 150)  0           conv2d_30[0][0]                  
                                                                 conv2d_29[0][0]                  
                                                                 conv2d_28[0][0]                  
__________________________________________________________________________________________________
hidden_secret (Conv2D)          (None, 32, 32, 3)    453         hidden[0][0]                     
__________________________________________________________________________________________________
revealing_model (Model)         (None, 32, 32, 3)    758703      hidden_secret[0][0]              
__________________________________________________________________________________________________
censorship_detection (Model)    (None, 1)            354721      hidden_secret[0][0]              
==================================================================================================
Total params: 3,005,377
Trainable params: 2,650,656
Non-trainable params: 354,721
__________________________________________________________________________________________________
__________________________________________________________________________________________________
Layer (type)                    Output Shape         Param #     Connected to                     
==================================================================================================
input_2 (InputLayer)            (None, 32, 32, 3)    0                                            
__________________________________________________________________________________________________
conv2d_1 (Conv2D)               (None, 32, 32, 50)   1400        input_2[0][0]                    
__________________________________________________________________________________________________
conv2d_5 (Conv2D)               (None, 32, 32, 50)   2450        input_2[0][0]                    
__________________________________________________________________________________________________
conv2d_9 (Conv2D)               (None, 32, 32, 50)   3800        input_2[0][0]                    
__________________________________________________________________________________________________
conv2d_2 (Conv2D)               (None, 32, 32, 50)   22550       conv2d_1[0][0]                   
__________________________________________________________________________________________________
conv2d_6 (Conv2D)               (None, 32, 32, 50)   40050       conv2d_5[0][0]                   
__________________________________________________________________________________________________
conv2d_10 (Conv2D)              (None, 32, 32, 50)   62550       conv2d_9[0][0]                   
__________________________________________________________________________________________________
conv2d_3 (Conv2D)               (None, 32, 32, 50)   22550       conv2d_2[0][0]                   
__________________________________________________________________________________________________
conv2d_7 (Conv2D)               (None, 32, 32, 50)   40050       conv2d_6[0][0]                   
__________________________________________________________________________________________________
conv2d_11 (Conv2D)              (None, 32, 32, 50)   62550       conv2d_10[0][0]                  
__________________________________________________________________________________________________
conv2d_4 (Conv2D)               (None, 32, 32, 50)   22550       conv2d_3[0][0]                   
__________________________________________________________________________________________________
conv2d_8 (Conv2D)               (None, 32, 32, 50)   40050       conv2d_7[0][0]                   
__________________________________________________________________________________________________
conv2d_12 (Conv2D)              (None, 32, 32, 50)   62550       conv2d_11[0][0]                  
__________________________________________________________________________________________________
concatenate_1 (Concatenate)     (None, 32, 32, 150)  0           conv2d_4[0][0]                   
                                                                 conv2d_8[0][0]                   
                                                                 conv2d_12[0][0]                  
__________________________________________________________________________________________________
conv2d_15 (Conv2D)              (None, 32, 32, 50)   187550      concatenate_1[0][0]              
__________________________________________________________________________________________________
conv2d_14 (Conv2D)              (None, 32, 32, 50)   120050      concatenate_1[0][0]              
__________________________________________________________________________________________________
conv2d_13 (Conv2D)              (None, 32, 32, 50)   67550       concatenate_1[0][0]              
__________________________________________________________________________________________________
input_1 (InputLayer)            (None, 32, 32, 3)    0                                            
__________________________________________________________________________________________________
prepared (Concatenate)          (None, 32, 32, 150)  0           conv2d_15[0][0]                  
                                                                 conv2d_14[0][0]                  
                                                                 conv2d_13[0][0]                  
__________________________________________________________________________________________________
concatenate_2 (Concatenate)     (None, 32, 32, 153)  0           input_1[0][0]                    
                                                                 prepared[0][0]                   
__________________________________________________________________________________________________
conv2d_16 (Conv2D)              (None, 32, 32, 50)   68900       concatenate_2[0][0]              
__________________________________________________________________________________________________
conv2d_20 (Conv2D)              (None, 32, 32, 50)   122450      concatenate_2[0][0]              
__________________________________________________________________________________________________
conv2d_24 (Conv2D)              (None, 32, 32, 50)   191300      concatenate_2[0][0]              
__________________________________________________________________________________________________
conv2d_17 (Conv2D)              (None, 32, 32, 50)   22550       conv2d_16[0][0]                  
__________________________________________________________________________________________________
conv2d_21 (Conv2D)              (None, 32, 32, 50)   40050       conv2d_20[0][0]                  
__________________________________________________________________________________________________
conv2d_25 (Conv2D)              (None, 32, 32, 50)   62550       conv2d_24[0][0]                  
__________________________________________________________________________________________________
conv2d_18 (Conv2D)              (None, 32, 32, 50)   22550       conv2d_17[0][0]                  
__________________________________________________________________________________________________
conv2d_22 (Conv2D)              (None, 32, 32, 50)   40050       conv2d_21[0][0]                  
__________________________________________________________________________________________________
conv2d_26 (Conv2D)              (None, 32, 32, 50)   62550       conv2d_25[0][0]                  
__________________________________________________________________________________________________
conv2d_19 (Conv2D)              (None, 32, 32, 50)   22550       conv2d_18[0][0]                  
__________________________________________________________________________________________________
conv2d_23 (Conv2D)              (None, 32, 32, 50)   40050       conv2d_22[0][0]                  
__________________________________________________________________________________________________
conv2d_27 (Conv2D)              (None, 32, 32, 50)   62550       conv2d_26[0][0]                  
__________________________________________________________________________________________________
concatenate_3 (Concatenate)     (None, 32, 32, 150)  0           conv2d_19[0][0]                  
                                                                 conv2d_23[0][0]                  
                                                                 conv2d_27[0][0]                  
__________________________________________________________________________________________________
conv2d_30 (Conv2D)              (None, 32, 32, 50)   187550      concatenate_3[0][0]              
__________________________________________________________________________________________________
conv2d_29 (Conv2D)              (None, 32, 32, 50)   120050      concatenate_3[0][0]              
__________________________________________________________________________________________________
conv2d_28 (Conv2D)              (None, 32, 32, 50)   67550       concatenate_3[0][0]              
__________________________________________________________________________________________________
hidden (Concatenate)            (None, 32, 32, 150)  0           conv2d_30[0][0]                  
                                                                 conv2d_29[0][0]                  
                                                                 conv2d_28[0][0]                  
__________________________________________________________________________________________________
hidden_secret (Conv2D)          (None, 32, 32, 3)    453         hidden[0][0]                     
__________________________________________________________________________________________________
revealing_model (Model)         (None, 32, 32, 3)    758703      hidden_secret[0][0]              
__________________________________________________________________________________________________
censorship_detection (Model)    (None, 1)            354721      hidden_secret[0][0]              
==================================================================================================
Total params: 3,005,377
Trainable params: 2,650,656
Non-trainable params: 354,721
__________________________________________________________________________________________________
__________________________________________________________________________________________________
Layer (type)                    Output Shape         Param #     Connected to                     
==================================================================================================
input_2 (InputLayer)            (None, 32, 32, 3)    0                                            
__________________________________________________________________________________________________
conv2d_1 (Conv2D)               (None, 32, 32, 50)   1400        input_2[0][0]                    
__________________________________________________________________________________________________
conv2d_5 (Conv2D)               (None, 32, 32, 50)   2450        input_2[0][0]                    
__________________________________________________________________________________________________
conv2d_9 (Conv2D)               (None, 32, 32, 50)   3800        input_2[0][0]                    
__________________________________________________________________________________________________
conv2d_2 (Conv2D)               (None, 32, 32, 50)   22550       conv2d_1[0][0]                   
__________________________________________________________________________________________________
conv2d_6 (Conv2D)               (None, 32, 32, 50)   40050       conv2d_5[0][0]                   
__________________________________________________________________________________________________
conv2d_10 (Conv2D)              (None, 32, 32, 50)   62550       conv2d_9[0][0]                   
__________________________________________________________________________________________________
conv2d_3 (Conv2D)               (None, 32, 32, 50)   22550       conv2d_2[0][0]                   
__________________________________________________________________________________________________
conv2d_7 (Conv2D)               (None, 32, 32, 50)   40050       conv2d_6[0][0]                   
__________________________________________________________________________________________________
conv2d_11 (Conv2D)              (None, 32, 32, 50)   62550       conv2d_10[0][0]                  
__________________________________________________________________________________________________
conv2d_4 (Conv2D)               (None, 32, 32, 50)   22550       conv2d_3[0][0]                   
__________________________________________________________________________________________________
conv2d_8 (Conv2D)               (None, 32, 32, 50)   40050       conv2d_7[0][0]                   
__________________________________________________________________________________________________
conv2d_12 (Conv2D)              (None, 32, 32, 50)   62550       conv2d_11[0][0]                  
__________________________________________________________________________________________________
concatenate_1 (Concatenate)     (None, 32, 32, 150)  0           conv2d_4[0][0]                   
                                                                 conv2d_8[0][0]                   
                                                                 conv2d_12[0][0]                  
__________________________________________________________________________________________________
conv2d_15 (Conv2D)              (None, 32, 32, 50)   187550      concatenate_1[0][0]              
__________________________________________________________________________________________________
conv2d_14 (Conv2D)              (None, 32, 32, 50)   120050      concatenate_1[0][0]              
__________________________________________________________________________________________________
conv2d_13 (Conv2D)              (None, 32, 32, 50)   67550       concatenate_1[0][0]              
__________________________________________________________________________________________________
input_1 (InputLayer)            (None, 32, 32, 3)    0                                            
__________________________________________________________________________________________________
prepared (Concatenate)          (None, 32, 32, 150)  0           conv2d_15[0][0]                  
                                                                 conv2d_14[0][0]                  
                                                                 conv2d_13[0][0]                  
__________________________________________________________________________________________________
concatenate_2 (Concatenate)     (None, 32, 32, 153)  0           input_1[0][0]                    
                                                                 prepared[0][0]                   
__________________________________________________________________________________________________
conv2d_16 (Conv2D)              (None, 32, 32, 50)   68900       concatenate_2[0][0]              
__________________________________________________________________________________________________
conv2d_20 (Conv2D)              (None, 32, 32, 50)   122450      concatenate_2[0][0]              
__________________________________________________________________________________________________
conv2d_24 (Conv2D)              (None, 32, 32, 50)   191300      concatenate_2[0][0]              
__________________________________________________________________________________________________
conv2d_17 (Conv2D)              (None, 32, 32, 50)   22550       conv2d_16[0][0]                  
__________________________________________________________________________________________________
conv2d_21 (Conv2D)              (None, 32, 32, 50)   40050       conv2d_20[0][0]                  
__________________________________________________________________________________________________
conv2d_25 (Conv2D)              (None, 32, 32, 50)   62550       conv2d_24[0][0]                  
__________________________________________________________________________________________________
conv2d_18 (Conv2D)              (None, 32, 32, 50)   22550       conv2d_17[0][0]                  
__________________________________________________________________________________________________
conv2d_22 (Conv2D)              (None, 32, 32, 50)   40050       conv2d_21[0][0]                  
__________________________________________________________________________________________________
conv2d_26 (Conv2D)              (None, 32, 32, 50)   62550       conv2d_25[0][0]                  
__________________________________________________________________________________________________
conv2d_19 (Conv2D)              (None, 32, 32, 50)   22550       conv2d_18[0][0]                  
__________________________________________________________________________________________________
conv2d_23 (Conv2D)              (None, 32, 32, 50)   40050       conv2d_22[0][0]                  
__________________________________________________________________________________________________
conv2d_27 (Conv2D)              (None, 32, 32, 50)   62550       conv2d_26[0][0]                  
__________________________________________________________________________________________________
concatenate_3 (Concatenate)     (None, 32, 32, 150)  0           conv2d_19[0][0]                  
                                                                 conv2d_23[0][0]                  
                                                                 conv2d_27[0][0]                  
__________________________________________________________________________________________________
conv2d_30 (Conv2D)              (None, 32, 32, 50)   187550      concatenate_3[0][0]              
__________________________________________________________________________________________________
conv2d_29 (Conv2D)              (None, 32, 32, 50)   120050      concatenate_3[0][0]              
__________________________________________________________________________________________________
conv2d_28 (Conv2D)              (None, 32, 32, 50)   67550       concatenate_3[0][0]              
__________________________________________________________________________________________________
hidden (Concatenate)            (None, 32, 32, 150)  0           conv2d_30[0][0]                  __________________________________________________________________________________________________
Layer (type)                    Output Shape         Param #     Connected to                     
==================================================================================================
input_2 (InputLayer)            (None, 32, 32, 3)    0                                            
__________________________________________________________________________________________________
conv2d_1 (Conv2D)               (None, 32, 32, 50)   1400        input_2[0][0]                    
__________________________________________________________________________________________________
conv2d_5 (Conv2D)               (None, 32, 32, 50)   2450        input_2[0][0]                    
__________________________________________________________________________________________________
conv2d_9 (Conv2D)               (None, 32, 32, 50)   3800        input_2[0][0]                    
__________________________________________________________________________________________________
conv2d_2 (Conv2D)               (None, 32, 32, 50)   22550       conv2d_1[0][0]                   
__________________________________________________________________________________________________
conv2d_6 (Conv2D)               (None, 32, 32, 50)   40050       conv2d_5[0][0]                   
__________________________________________________________________________________________________
conv2d_10 (Conv2D)              (None, 32, 32, 50)   62550       conv2d_9[0][0]                   
__________________________________________________________________________________________________
conv2d_3 (Conv2D)               (None, 32, 32, 50)   22550       conv2d_2[0][0]                   
__________________________________________________________________________________________________
conv2d_7 (Conv2D)               (None, 32, 32, 50)   40050       conv2d_6[0][0]                   
__________________________________________________________________________________________________
conv2d_11 (Conv2D)              (None, 32, 32, 50)   62550       conv2d_10[0][0]                  
__________________________________________________________________________________________________
conv2d_4 (Conv2D)               (None, 32, 32, 50)   22550       conv2d_3[0][0]                   
__________________________________________________________________________________________________
conv2d_8 (Conv2D)               (None, 32, 32, 50)   40050       conv2d_7[0][0]                   
__________________________________________________________________________________________________
conv2d_12 (Conv2D)              (None, 32, 32, 50)   62550       conv2d_11[0][0]                  
__________________________________________________________________________________________________
concatenate_1 (Concatenate)     (None, 32, 32, 150)  0           conv2d_4[0][0]                   
                                                                 conv2d_8[0][0]                   
                                                                 conv2d_12[0][0]                  
__________________________________________________________________________________________________
conv2d_15 (Conv2D)              (None, 32, 32, 50)   187550      concatenate_1[0][0]              
__________________________________________________________________________________________________
conv2d_14 (Conv2D)              (None, 32, 32, 50)   120050      concatenate_1[0][0]              
__________________________________________________________________________________________________
conv2d_13 (Conv2D)              (None, 32, 32, 50)   67550       concatenate_1[0][0]              
__________________________________________________________________________________________________
input_1 (InputLayer)            (None, 32, 32, 3)    0                                            
__________________________________________________________________________________________________
prepared (Concatenate)          (None, 32, 32, 150)  0           conv2d_15[0][0]                  
                                                                 conv2d_14[0][0]                  
                                                                 conv2d_13[0][0]                  
__________________________________________________________________________________________________
concatenate_2 (Concatenate)     (None, 32, 32, 153)  0           input_1[0][0]                    
                                                                 prepared[0][0]                   
__________________________________________________________________________________________________
conv2d_16 (Conv2D)              (None, 32, 32, 50)   68900       concatenate_2[0][0]              
__________________________________________________________________________________________________
conv2d_20 (Conv2D)              (None, 32, 32, 50)   122450      concatenate_2[0][0]              
__________________________________________________________________________________________________
conv2d_24 (Conv2D)              (None, 32, 32, 50)   191300      concatenate_2[0][0]              
__________________________________________________________________________________________________
conv2d_17 (Conv2D)              (None, 32, 32, 50)   22550       conv2d_16[0][0]                  
__________________________________________________________________________________________________
conv2d_21 (Conv2D)              (None, 32, 32, 50)   40050       conv2d_20[0][0]                  
__________________________________________________________________________________________________
conv2d_25 (Conv2D)              (None, 32, 32, 50)   62550       conv2d_24[0][0]                  
__________________________________________________________________________________________________
conv2d_18 (Conv2D)              (None, 32, 32, 50)   22550       conv2d_17[0][0]                  
__________________________________________________________________________________________________
conv2d_22 (Conv2D)              (None, 32, 32, 50)   40050       conv2d_21[0][0]                  
__________________________________________________________________________________________________
conv2d_26 (Conv2D)              (None, 32, 32, 50)   62550       conv2d_25[0][0]                  
__________________________________________________________________________________________________
conv2d_19 (Conv2D)              (None, 32, 32, 50)   22550       conv2d_18[0][0]                  
__________________________________________________________________________________________________
conv2d_23 (Conv2D)              (None, 32, 32, 50)   40050       conv2d_22[0][0]                  
__________________________________________________________________________________________________
conv2d_27 (Conv2D)              (None, 32, 32, 50)   62550       conv2d_26[0][0]                  
__________________________________________________________________________________________________
concatenate_3 (Concatenate)     (None, 32, 32, 150)  0           conv2d_19[0][0]                  
                                                                 conv2d_23[0][0]                  
                                                                 conv2d_27[0][0]                  
__________________________________________________________________________________________________
conv2d_30 (Conv2D)              (None, 32, 32, 50)   187550      concatenate_3[0][0]              
__________________________________________________________________________________________________
conv2d_29 (Conv2D)              (None, 32, 32, 50)   120050      concatenate_3[0][0]              
__________________________________________________________________________________________________
conv2d_28 (Conv2D)              (None, 32, 32, 50)   67550       concatenate_3[0][0]              
__________________________________________________________________________________________________
hidden (Concatenate)            (None, 32, 32, 150)  0           conv2d_30[0][0]                  
                                                                 conv2d_29[0][0]                  
                                                                 conv2d_28[0][0]                  
__________________________________________________________________________________________________
hidden_secret (Conv2D)          (None, 32, 32, 3)    453         hidden[0][0]                     
__________________________________________________________________________________________________
revealing_model (Model)         (None, 32, 32, 3)    758703      hidden_secret[0][0]              
__________________________________________________________________________________________________
censorship_detection (Model)    (None, 1)            354721      hidden_secret[0][0]              
==================================================================================================
Total params: 3,005,377
Trainable params: 2,650,656
Non-trainable params: 354,721
__________________________________________________________________________________________________
 * Serving Flask app "app" (lazy loading)
 * Environment: production
   WARNING: Do not use the development server in a production environment.
   Use a production WSGI server instead.
 * Debug mode: on
__________________________________________________________________________________________________
Layer (type)                    Output Shape         Param #     Connected to                     
==================================================================================================
input_2 (InputLayer)            (None, 32, 32, 3)    0                                            
__________________________________________________________________________________________________
conv2d_1 (Conv2D)               (None, 32, 32, 50)   1400        input_2[0][0]                    
__________________________________________________________________________________________________
conv2d_5 (Conv2D)               (None, 32, 32, 50)   2450        input_2[0][0]                    
__________________________________________________________________________________________________
conv2d_9 (Conv2D)               (None, 32, 32, 50)   3800        input_2[0][0]                    
__________________________________________________________________________________________________
conv2d_2 (Conv2D)               (None, 32, 32, 50)   22550       conv2d_1[0][0]                   
__________________________________________________________________________________________________
conv2d_6 (Conv2D)               (None, 32, 32, 50)   40050       conv2d_5[0][0]                   
__________________________________________________________________________________________________
conv2d_10 (Conv2D)              (None, 32, 32, 50)   62550       conv2d_9[0][0]                   
__________________________________________________________________________________________________
conv2d_3 (Conv2D)               (None, 32, 32, 50)   22550       conv2d_2[0][0]                   
__________________________________________________________________________________________________
conv2d_7 (Conv2D)               (None, 32, 32, 50)   40050       conv2d_6[0][0]                   
__________________________________________________________________________________________________
conv2d_11 (Conv2D)              (None, 32, 32, 50)   62550       conv2d_10[0][0]                  
__________________________________________________________________________________________________
conv2d_4 (Conv2D)               (None, 32, 32, 50)   22550       conv2d_3[0][0]                   
__________________________________________________________________________________________________
conv2d_8 (Conv2D)               (None, 32, 32, 50)   40050       conv2d_7[0][0]                   
__________________________________________________________________________________________________
conv2d_12 (Conv2D)              (None, 32, 32, 50)   62550       conv2d_11[0][0]                  
__________________________________________________________________________________________________
concatenate_1 (Concatenate)     (None, 32, 32, 150)  0           conv2d_4[0][0]                   
                                                                 conv2d_8[0][0]                   
                                                                 conv2d_12[0][0]                  
__________________________________________________________________________________________________
conv2d_15 (Conv2D)              (None, 32, 32, 50)   187550      concatenate_1[0][0]              
__________________________________________________________________________________________________
conv2d_14 (Conv2D)              (None, 32, 32, 50)   120050      concatenate_1[0][0]              
__________________________________________________________________________________________________
conv2d_13 (Conv2D)              (None, 32, 32, 50)   67550       concatenate_1[0][0]              
__________________________________________________________________________________________________
input_1 (InputLayer)            (None, 32, 32, 3)    0                                            
__________________________________________________________________________________________________
prepared (Concatenate)          (None, 32, 32, 150)  0           conv2d_15[0][0]                  
                                                                 conv2d_14[0][0]                  
                                                                 conv2d_13[0][0]                  
__________________________________________________________________________________________________
concatenate_2 (Concatenate)     (None, 32, 32, 153)  0           input_1[0][0]                    
                                                                 prepared[0][0]                   
__________________________________________________________________________________________________
conv2d_16 (Conv2D)              (None, 32, 32, 50)   68900       concatenate_2[0][0]              
__________________________________________________________________________________________________
conv2d_20 (Conv2D)              (None, 32, 32, 50)   122450      concatenate_2[0][0]              
__________________________________________________________________________________________________
conv2d_24 (Conv2D)              (None, 32, 32, 50)   191300      concatenate_2[0][0]              
__________________________________________________________________________________________________
conv2d_17 (Conv2D)              (None, 32, 32, 50)   22550       conv2d_16[0][0]                  
__________________________________________________________________________________________________
conv2d_21 (Conv2D)              (None, 32, 32, 50)   40050       conv2d_20[0][0]                  
__________________________________________________________________________________________________
conv2d_25 (Conv2D)              (None, 32, 32, 50)   62550       conv2d_24[0][0]                  
__________________________________________________________________________________________________
conv2d_18 (Conv2D)              (None, 32, 32, 50)   22550       conv2d_17[0][0]                  
__________________________________________________________________________________________________
conv2d_22 (Conv2D)              (None, 32, 32, 50)   40050       conv2d_21[0][0]                  
__________________________________________________________________________________________________
conv2d_26 (Conv2D)              (None, 32, 32, 50)   62550       conv2d_25[0][0]                  
__________________________________________________________________________________________________
conv2d_19 (Conv2D)              (None, 32, 32, 50)   22550       conv2d_18[0][0]                  
__________________________________________________________________________________________________
conv2d_23 (Conv2D)              (None, 32, 32, 50)   40050       conv2d_22[0][0]                  
__________________________________________________________________________________________________
conv2d_27 (Conv2D)              (None, 32, 32, 50)   62550       conv2d_26[0][0]                  
__________________________________________________________________________________________________
concatenate_3 (Concatenate)     (None, 32, 32, 150)  0           conv2d_19[0][0]                  
                                                                 conv2d_23[0][0]                  
                                                                 conv2d_27[0][0]                  
__________________________________________________________________________________________________
conv2d_30 (Conv2D)              (None, 32, 32, 50)   187550      concatenate_3[0][0]              
__________________________________________________________________________________________________
conv2d_29 (Conv2D)              (None, 32, 32, 50)   120050      concatenate_3[0][0]              
__________________________________________________________________________________________________
conv2d_28 (Conv2D)              (None, 32, 32, 50)   67550       concatenate_3[0][0]              
__________________________________________________________________________________________________
hidden (Concatenate)            (None, 32, 32, 150)  0           conv2d_30[0][0]                  __________________________________________________________________________________________________
Layer (type)                    Output Shape         Param #     Connected to                     
==================================================================================================
input_2 (InputLayer)            (None, 32, 32, 3)    0                                            
__________________________________________________________________________________________________
conv2d_1 (Conv2D)               (None, 32, 32, 50)   1400        input_2[0][0]                    
__________________________________________________________________________________________________
conv2d_5 (Conv2D)               (None, 32, 32, 50)   2450        input_2[0][0]                    
__________________________________________________________________________________________________
conv2d_9 (Conv2D)               (None, 32, 32, 50)   3800        input_2[0][0]                    
__________________________________________________________________________________________________
conv2d_2 (Conv2D)               (None, 32, 32, 50)   22550       conv2d_1[0][0]                   
__________________________________________________________________________________________________
conv2d_6 (Conv2D)               (None, 32, 32, 50)   40050       conv2d_5[0][0]                   
__________________________________________________________________________________________________
conv2d_10 (Conv2D)              (None, 32, 32, 50)   62550       conv2d_9[0][0]                   
__________________________________________________________________________________________________
conv2d_3 (Conv2D)               (None, 32, 32, 50)   22550       conv2d_2[0][0]                   
__________________________________________________________________________________________________
conv2d_7 (Conv2D)               (None, 32, 32, 50)   40050       conv2d_6[0][0]                   
__________________________________________________________________________________________________
conv2d_11 (Conv2D)              (None, 32, 32, 50)   62550       conv2d_10[0][0]                  
__________________________________________________________________________________________________
conv2d_4 (Conv2D)               (None, 32, 32, 50)   22550       conv2d_3[0][0]                   
__________________________________________________________________________________________________
conv2d_8 (Conv2D)               (None, 32, 32, 50)   40050       conv2d_7[0][0]                   
__________________________________________________________________________________________________
conv2d_12 (Conv2D)              (None, 32, 32, 50)   62550       conv2d_11[0][0]                  
__________________________________________________________________________________________________
concatenate_1 (Concatenate)     (None, 32, 32, 150)  0           conv2d_4[0][0]                   
                                                                 conv2d_8[0][0]                   
                                                                 conv2d_12[0][0]                  
__________________________________________________________________________________________________
conv2d_15 (Conv2D)              (None, 32, 32, 50)   187550      concatenate_1[0][0]              
__________________________________________________________________________________________________
conv2d_14 (Conv2D)              (None, 32, 32, 50)   120050      concatenate_1[0][0]              
__________________________________________________________________________________________________
conv2d_13 (Conv2D)              (None, 32, 32, 50)   67550       concatenate_1[0][0]              
__________________________________________________________________________________________________
input_1 (InputLayer)            (None, 32, 32, 3)    0                                            
__________________________________________________________________________________________________
prepared (Concatenate)          (None, 32, 32, 150)  0           conv2d_15[0][0]                  
                                                                 conv2d_14[0][0]                  
                                                                 conv2d_13[0][0]                  
__________________________________________________________________________________________________
concatenate_2 (Concatenate)     (None, 32, 32, 153)  0           input_1[0][0]                    
                                                                 prepared[0][0]                   
__________________________________________________________________________________________________
conv2d_16 (Conv2D)              (None, 32, 32, 50)   68900       concatenate_2[0][0]              
__________________________________________________________________________________________________
conv2d_20 (Conv2D)              (None, 32, 32, 50)   122450      concatenate_2[0][0]              
__________________________________________________________________________________________________
conv2d_24 (Conv2D)              (None, 32, 32, 50)   191300      concatenate_2[0][0]              
__________________________________________________________________________________________________
conv2d_17 (Conv2D)              (None, 32, 32, 50)   22550       conv2d_16[0][0]                  
__________________________________________________________________________________________________
conv2d_21 (Conv2D)              (None, 32, 32, 50)   40050       conv2d_20[0][0]                  
__________________________________________________________________________________________________
conv2d_25 (Conv2D)              (None, 32, 32, 50)   62550       conv2d_24[0][0]                  
__________________________________________________________________________________________________
conv2d_18 (Conv2D)              (None, 32, 32, 50)   22550       conv2d_17[0][0]                  
__________________________________________________________________________________________________
conv2d_22 (Conv2D)              (None, 32, 32, 50)   40050       conv2d_21[0][0]                  
__________________________________________________________________________________________________
conv2d_26 (Conv2D)              (None, 32, 32, 50)   62550       conv2d_25[0][0]                  
__________________________________________________________________________________________________
conv2d_19 (Conv2D)              (None, 32, 32, 50)   22550       conv2d_18[0][0]                  
__________________________________________________________________________________________________
conv2d_23 (Conv2D)              (None, 32, 32, 50)   40050       conv2d_22[0][0]                  
__________________________________________________________________________________________________
conv2d_27 (Conv2D)              (None, 32, 32, 50)   62550       conv2d_26[0][0]                  
__________________________________________________________________________________________________
concatenate_3 (Concatenate)     (None, 32, 32, 150)  0           conv2d_19[0][0]                  
                                                                 conv2d_23[0][0]                  
                                                                 conv2d_27[0][0]                  
__________________________________________________________________________________________________
conv2d_30 (Conv2D)              (None, 32, 32, 50)   187550      concatenate_3[0][0]              
__________________________________________________________________________________________________
conv2d_29 (Conv2D)              (None, 32, 32, 50)   120050      concatenate_3[0][0]              
__________________________________________________________________________________________________
conv2d_28 (Conv2D)              (None, 32, 32, 50)   67550       concatenate_3[0][0]              
__________________________________________________________________________________________________
hidden (Concatenate)            (None, 32, 32, 150)  0           conv2d_30[0][0]                  
                                                                 conv2d_29[0][0]                  
                                                                 conv2d_28[0][0]                  
__________________________________________________________________________________________________
hidden_secret (Conv2D)          (None, 32, 32, 3)    453         hidden[0][0]                     
__________________________________________________________________________________________________
revealing_model (Model)         (None, 32, 32, 3)    758703      hidden_secret[0][0]              
__________________________________________________________________________________________________
censorship_detection (Model)    (None, 1)            354721      hidden_secret[0][0]              
==================================================================================================
Total params: 3,005,377
Trainable params: 2,650,656
Non-trainable params: 354,721
__________________________________________________________________________________________________
 * Serving Flask app "app" (lazy loading)
 * Environment: production
   WARNING: Do not use the development server in a production environment.
   Use a production WSGI server instead.
 * Debug mode: on
__________________________________________________________________________________________________
Layer (type)                    Output Shape         Param #     Connected to                     
==================================================================================================
input_2 (InputLayer)            (None, 32, 32, 3)    0                                            
__________________________________________________________________________________________________
conv2d_1 (Conv2D)               (None, 32, 32, 50)   1400        input_2[0][0]                    
__________________________________________________________________________________________________
conv2d_5 (Conv2D)               (None, 32, 32, 50)   2450        input_2[0][0]                    
__________________________________________________________________________________________________
conv2d_9 (Conv2D)               (None, 32, 32, 50)   3800        input_2[0][0]                    
__________________________________________________________________________________________________
conv2d_2 (Conv2D)               (None, 32, 32, 50)   22550       conv2d_1[0][0]                   
__________________________________________________________________________________________________
conv2d_6 (Conv2D)               (None, 32, 32, 50)   40050       conv2d_5[0][0]                   
__________________________________________________________________________________________________
conv2d_10 (Conv2D)              (None, 32, 32, 50)   62550       conv2d_9[0][0]                   
__________________________________________________________________________________________________
conv2d_3 (Conv2D)               (None, 32, 32, 50)   22550       conv2d_2[0][0]                   
__________________________________________________________________________________________________
conv2d_7 (Conv2D)               (None, 32, 32, 50)   40050       conv2d_6[0][0]                   
__________________________________________________________________________________________________
conv2d_11 (Conv2D)              (None, 32, 32, 50)   62550       conv2d_10[0][0]                  
__________________________________________________________________________________________________
conv2d_4 (Conv2D)               (None, 32, 32, 50)   22550       conv2d_3[0][0]                   
__________________________________________________________________________________________________
conv2d_8 (Conv2D)               (None, 32, 32, 50)   40050       conv2d_7[0][0]                   
__________________________________________________________________________________________________
conv2d_12 (Conv2D)              (None, 32, 32, 50)   62550       conv2d_11[0][0]                  
__________________________________________________________________________________________________
concatenate_1 (Concatenate)     (None, 32, 32, 150)  0           conv2d_4[0][0]                   
                                                                 conv2d_8[0][0]                   
                                                                 conv2d_12[0][0]                  
__________________________________________________________________________________________________
conv2d_15 (Conv2D)              (None, 32, 32, 50)   187550      concatenate_1[0][0]              
__________________________________________________________________________________________________
conv2d_14 (Conv2D)              (None, 32, 32, 50)   120050      concatenate_1[0][0]              
__________________________________________________________________________________________________
conv2d_13 (Conv2D)              (None, 32, 32, 50)   67550       concatenate_1[0][0]              
__________________________________________________________________________________________________
input_1 (InputLayer)            (None, 32, 32, 3)    0                                            
__________________________________________________________________________________________________
prepared (Concatenate)          (None, 32, 32, 150)  0           conv2d_15[0][0]                  
                                                                 conv2d_14[0][0]                  
                                                                 conv2d_13[0][0]                  
__________________________________________________________________________________________________
concatenate_2 (Concatenate)     (None, 32, 32, 153)  0           input_1[0][0]                    
                                                                 prepared[0][0]                   
__________________________________________________________________________________________________
conv2d_16 (Conv2D)              (None, 32, 32, 50)   68900       concatenate_2[0][0]              
__________________________________________________________________________________________________
conv2d_20 (Conv2D)              (None, 32, 32, 50)   122450      concatenate_2[0][0]              
__________________________________________________________________________________________________
conv2d_24 (Conv2D)              (None, 32, 32, 50)   191300      concatenate_2[0][0]              
__________________________________________________________________________________________________
conv2d_17 (Conv2D)              (None, 32, 32, 50)   22550       conv2d_16[0][0]                  
__________________________________________________________________________________________________
conv2d_21 (Conv2D)              (None, 32, 32, 50)   40050       conv2d_20[0][0]                  
__________________________________________________________________________________________________
conv2d_25 (Conv2D)              (None, 32, 32, 50)   62550       conv2d_24[0][0]                  
__________________________________________________________________________________________________
conv2d_18 (Conv2D)              (None, 32, 32, 50)   22550       conv2d_17[0][0]                  
__________________________________________________________________________________________________
conv2d_22 (Conv2D)              (None, 32, 32, 50)   40050       conv2d_21[0][0]                  
__________________________________________________________________________________________________
conv2d_26 (Conv2D)              (None, 32, 32, 50)   62550       conv2d_25[0][0]                  
__________________________________________________________________________________________________
conv2d_19 (Conv2D)              (None, 32, 32, 50)   22550       conv2d_18[0][0]                  
__________________________________________________________________________________________________
conv2d_23 (Conv2D)              (None, 32, 32, 50)   40050       conv2d_22[0][0]                  
__________________________________________________________________________________________________
conv2d_27 (Conv2D)              (None, 32, 32, 50)   62550       conv2d_26[0][0]                  
__________________________________________________________________________________________________
concatenate_3 (Concatenate)     (None, 32, 32, 150)  0           conv2d_19[0][0]                  
                                                                 conv2d_23[0][0]                  
                                                                 conv2d_27[0][0]                  
__________________________________________________________________________________________________
conv2d_30 (Conv2D)              (None, 32, 32, 50)   187550      concatenate_3[0][0]              
__________________________________________________________________________________________________
conv2d_29 (Conv2D)              (None, 32, 32, 50)   120050      concatenate_3[0][0]              
__________________________________________________________________________________________________
conv2d_28 (Conv2D)              (None, 32, 32, 50)   67550       concatenate_3[0][0]              
__________________________________________________________________________________________________
hidden (Concatenate)            (None, 32, 32, 150)  0           conv2d_30[0][0]                  __________________________________________________________________________________________________
Layer (type)                    Output Shape         Param #     Connected to                     
==================================================================================================
input_2 (InputLayer)            (None, 32, 32, 3)    0                                            
__________________________________________________________________________________________________
conv2d_1 (Conv2D)               (None, 32, 32, 50)   1400        input_2[0][0]                    
__________________________________________________________________________________________________
conv2d_5 (Conv2D)               (None, 32, 32, 50)   2450        input_2[0][0]                    
__________________________________________________________________________________________________
conv2d_9 (Conv2D)               (None, 32, 32, 50)   3800        input_2[0][0]                    
__________________________________________________________________________________________________
conv2d_2 (Conv2D)               (None, 32, 32, 50)   22550       conv2d_1[0][0]                   
__________________________________________________________________________________________________
conv2d_6 (Conv2D)               (None, 32, 32, 50)   40050       conv2d_5[0][0]                   
__________________________________________________________________________________________________
conv2d_10 (Conv2D)              (None, 32, 32, 50)   62550       conv2d_9[0][0]                   
__________________________________________________________________________________________________
conv2d_3 (Conv2D)               (None, 32, 32, 50)   22550       conv2d_2[0][0]                   
__________________________________________________________________________________________________
conv2d_7 (Conv2D)               (None, 32, 32, 50)   40050       conv2d_6[0][0]                   
__________________________________________________________________________________________________
conv2d_11 (Conv2D)              (None, 32, 32, 50)   62550       conv2d_10[0][0]                  
__________________________________________________________________________________________________
conv2d_4 (Conv2D)               (None, 32, 32, 50)   22550       conv2d_3[0][0]                   
__________________________________________________________________________________________________
conv2d_8 (Conv2D)               (None, 32, 32, 50)   40050       conv2d_7[0][0]                   
__________________________________________________________________________________________________
conv2d_12 (Conv2D)              (None, 32, 32, 50)   62550       conv2d_11[0][0]                  
__________________________________________________________________________________________________
concatenate_1 (Concatenate)     (None, 32, 32, 150)  0           conv2d_4[0][0]                   
                                                                 conv2d_8[0][0]                   
                                                                 conv2d_12[0][0]                  
__________________________________________________________________________________________________
conv2d_15 (Conv2D)              (None, 32, 32, 50)   187550      concatenate_1[0][0]              
__________________________________________________________________________________________________
conv2d_14 (Conv2D)              (None, 32, 32, 50)   120050      concatenate_1[0][0]              
__________________________________________________________________________________________________
conv2d_13 (Conv2D)              (None, 32, 32, 50)   67550       concatenate_1[0][0]              
__________________________________________________________________________________________________
input_1 (InputLayer)            (None, 32, 32, 3)    0                                            
__________________________________________________________________________________________________
prepared (Concatenate)          (None, 32, 32, 150)  0           conv2d_15[0][0]                  
                                                                 conv2d_14[0][0]                  
                                                                 conv2d_13[0][0]                  
__________________________________________________________________________________________________
concatenate_2 (Concatenate)     (None, 32, 32, 153)  0           input_1[0][0]                    
                                                                 prepared[0][0]                   
__________________________________________________________________________________________________
conv2d_16 (Conv2D)              (None, 32, 32, 50)   68900       concatenate_2[0][0]              
__________________________________________________________________________________________________
conv2d_20 (Conv2D)              (None, 32, 32, 50)   122450      concatenate_2[0][0]              
__________________________________________________________________________________________________
conv2d_24 (Conv2D)              (None, 32, 32, 50)   191300      concatenate_2[0][0]              
__________________________________________________________________________________________________
conv2d_17 (Conv2D)              (None, 32, 32, 50)   22550       conv2d_16[0][0]                  
__________________________________________________________________________________________________
conv2d_21 (Conv2D)              (None, 32, 32, 50)   40050       conv2d_20[0][0]                  
__________________________________________________________________________________________________
conv2d_25 (Conv2D)              (None, 32, 32, 50)   62550       conv2d_24[0][0]                  
__________________________________________________________________________________________________
conv2d_18 (Conv2D)              (None, 32, 32, 50)   22550       conv2d_17[0][0]                  
__________________________________________________________________________________________________
conv2d_22 (Conv2D)              (None, 32, 32, 50)   40050       conv2d_21[0][0]                  
__________________________________________________________________________________________________
conv2d_26 (Conv2D)              (None, 32, 32, 50)   62550       conv2d_25[0][0]                  
__________________________________________________________________________________________________
conv2d_19 (Conv2D)              (None, 32, 32, 50)   22550       conv2d_18[0][0]                  
__________________________________________________________________________________________________
conv2d_23 (Conv2D)              (None, 32, 32, 50)   40050       conv2d_22[0][0]                  
__________________________________________________________________________________________________
conv2d_27 (Conv2D)              (None, 32, 32, 50)   62550       conv2d_26[0][0]                  
__________________________________________________________________________________________________
concatenate_3 (Concatenate)     (None, 32, 32, 150)  0           conv2d_19[0][0]                  
                                                                 conv2d_23[0][0]                  
                                                                 conv2d_27[0][0]                  
__________________________________________________________________________________________________
conv2d_30 (Conv2D)              (None, 32, 32, 50)   187550      concatenate_3[0][0]              
__________________________________________________________________________________________________
conv2d_29 (Conv2D)              (None, 32, 32, 50)   120050      concatenate_3[0][0]              
__________________________________________________________________________________________________
conv2d_28 (Conv2D)              (None, 32, 32, 50)   67550       concatenate_3[0][0]              
__________________________________________________________________________________________________
hidden (Concatenate)            (None, 32, 32, 150)  0           conv2d_30[0][0]                  
                                                                 conv2d_29[0][0]                  
                                                                 conv2d_28[0][0]                  
__________________________________________________________________________________________________
hidden_secret (Conv2D)          (None, 32, 32, 3)    453         hidden[0][0]                     
__________________________________________________________________________________________________
revealing_model (Model)         (None, 32, 32, 3)    758703      hidden_secret[0][0]              
__________________________________________________________________________________________________
censorship_detection (Model)    (None, 1)            354721      hidden_secret[0][0]              
==================================================================================================
Total params: 3,005,377
Trainable params: 2,650,656
Non-trainable params: 354,721
__________________________________________________________________________________________________
 * Serving Flask app "app" (lazy loading)
 * Environment: production
   WARNING: Do not use the development server in a production environment.
   Use a production WSGI server instead.
 * Debug mode: on
__________________________________________________________________________________________________
Layer (type)                    Output Shape         Param #     Connected to                     
==================================================================================================
input_2 (InputLayer)            (None, 32, 32, 3)    0                                            
__________________________________________________________________________________________________
conv2d_1 (Conv2D)               (None, 32, 32, 50)   1400        input_2[0][0]                    
__________________________________________________________________________________________________
conv2d_5 (Conv2D)               (None, 32, 32, 50)   2450        input_2[0][0]                    
__________________________________________________________________________________________________
conv2d_9 (Conv2D)               (None, 32, 32, 50)   3800        input_2[0][0]                    
__________________________________________________________________________________________________
conv2d_2 (Conv2D)               (None, 32, 32, 50)   22550       conv2d_1[0][0]                   
__________________________________________________________________________________________________
conv2d_6 (Conv2D)               (None, 32, 32, 50)   40050       conv2d_5[0][0]                   
__________________________________________________________________________________________________
conv2d_10 (Conv2D)              (None, 32, 32, 50)   62550       conv2d_9[0][0]                   
__________________________________________________________________________________________________
conv2d_3 (Conv2D)               (None, 32, 32, 50)   22550       conv2d_2[0][0]                   
__________________________________________________________________________________________________
conv2d_7 (Conv2D)               (None, 32, 32, 50)   40050       conv2d_6[0][0]                   
__________________________________________________________________________________________________
conv2d_11 (Conv2D)              (None, 32, 32, 50)   62550       conv2d_10[0][0]                  
__________________________________________________________________________________________________
conv2d_4 (Conv2D)               (None, 32, 32, 50)   22550       conv2d_3[0][0]                   
__________________________________________________________________________________________________
conv2d_8 (Conv2D)               (None, 32, 32, 50)   40050       conv2d_7[0][0]                   
__________________________________________________________________________________________________
conv2d_12 (Conv2D)              (None, 32, 32, 50)   62550       conv2d_11[0][0]                  
…
                                                                 conv2d_8[0][0]                   
                                                                 conv2d_12[0][0]                  
__________________________________________________________________________________________________
conv2d_15 (Conv2D)              (None, 32, 32, 50)   187550      concatenate_1[0][0]              
__________________________________________________________________________________________________
conv2d_14 (Conv2D)              (None, 32, 32, 50)   120050      concatenate_1[0][0]              
__________________________________________________________________________________________________
conv2d_13 (Conv2D)              (None, 32, 32, 50)   67550       concatenate_1[0][0]              
__________________________________________________________________________________________________
input_1 (InputLayer)            (None, 32, 32, 3)    0                                            
__________________________________________________________________________________________________
prepared (Concatenate)          (None, 32, 32, 150)  0           conv2d_15[0][0]                  
                                                                 conv2d_14[0][0]                  
                                                                 conv2d_13[0][0]                  
__________________________________________________________________________________________________
concatenate_2 (Concatenate)     (None, 32, 32, 153)  0           input_1[0][0]                    
                                                                 prepared[0][0]                   
__________________________________________________________________________________________________
conv2d_16 (Conv2D)              (None, 32, 32, 50)   68900       concatenate_2[0][0]              
__________________________________________________________________________________________________
conv2d_20 (Conv2D)              (None, 32, 32, 50)   122450      concatenate_2[0][0]              
__________________________________________________________________________________________________
conv2d_24 (Conv2D)              (None, 32, 32, 50)   191300      concatenate_2[0][0]              
__________________________________________________________________________________________________
conv2d_17 (Conv2D)              (None, 32, 32, 50)   22550       conv2d_16[0][0]                  
__________________________________________________________________________________________________
conv2d_21 (Conv2D)              (None, 32, 32, 50)   40050       conv2d_20[0][0]                  
__________________________________________________________________________________________________
conv2d_25 (Conv2D)              (None, 32, 32, 50)   62550       conv2d_24[0][0]                  
__________________________________________________________________________________________________
conv2d_18 (Conv2D)              (None, 32, 32, 50)   22550       conv2d_17[0][0]                  
__________________________________________________________________________________________________
conv2d_22 (Conv2D)              (None, 32, 32, 50)   40050       conv2d_21[0][0]                  
__________________________________________________________________________________________________
conv2d_26 (Conv2D)              (None, 32, 32, 50)   62550       conv2d_25[0][0]                  
__________________________________________________________________________________________________
conv2d_19 (Conv2D)              (None, 32, 32, 50)   22550       conv2d_18[0][0]                  
__________________________________________________________________________________________________
conv2d_23 (Conv2D)              (None, 32, 32, 50)   40050       conv2d_22[0][0]                  
__________________________________________________________________________________________________
conv2d_27 (Conv2D)              (None, 32, 32, 50)   62550       conv2d_26[0][0]                  
__________________________________________________________________________________________________
concatenate_3 (Concatenate)     (None, 32, 32, 150)  0           conv2d_19[0][0]                  
                                                                 conv2d_23[0][0]                  
                                                                 conv2d_27[0][0]                  
__________________________________________________________________________________________________
conv2d_30 (Conv2D)              (None, 32, 32, 50)   187550      concatenate_3[0][0]              
__________________________________________________________________________________________________
conv2d_29 (Conv2D)              (None, 32, 32, 50)   120050      concatenate_3[0][0]              
__________________________________________________________________________________________________
conv2d_28 (Conv2D)              (None, 32, 32, 50)   67550       concatenate_3[0][0]              
__________________________________________________________________________________________________
hidden (Concatenate)            (None, 32, 32, 150)  0           conv2d_30[0][0]                  __________________________________________________________________________________________________
Layer (type)                    Output Shape         Param #     Connected to                     
==================================================================================================
input_2 (InputLayer)            (None, 32, 32, 3)    0                                            
__________________________________________________________________________________________________
conv2d_1 (Conv2D)               (None, 32, 32, 50)   1400        input_2[0][0]                    
__________________________________________________________________________________________________
conv2d_5 (Conv2D)               (None, 32, 32, 50)   2450        input_2[0][0]                    
__________________________________________________________________________________________________
conv2d_9 (Conv2D)               (None, 32, 32, 50)   3800        input_2[0][0]                    
__________________________________________________________________________________________________
conv2d_2 (Conv2D)               (None, 32, 32, 50)   22550       conv2d_1[0][0]                   
__________________________________________________________________________________________________
conv2d_6 (Conv2D)               (None, 32, 32, 50)   40050       conv2d_5[0][0]                   
__________________________________________________________________________________________________
conv2d_10 (Conv2D)              (None, 32, 32, 50)   62550       conv2d_9[0][0]                   
__________________________________________________________________________________________________
conv2d_3 (Conv2D)               (None, 32, 32, 50)   22550       conv2d_2[0][0]                   
__________________________________________________________________________________________________
conv2d_7 (Conv2D)               (None, 32, 32, 50)   40050       conv2d_6[0][0]                   
__________________________________________________________________________________________________
conv2d_11 (Conv2D)              (None, 32, 32, 50)   62550       conv2d_10[0][0]                  
__________________________________________________________________________________________________
conv2d_4 (Conv2D)               (None, 32, 32, 50)   22550       conv2d_3[0][0]                   
__________________________________________________________________________________________________
conv2d_8 (Conv2D)               (None, 32, 32, 50)   40050       conv2d_7[0][0]                   
__________________________________________________________________________________________________
conv2d_12 (Conv2D)              (None, 32, 32, 50)   62550       conv2d_11[0][0]                  
__________________________________________________________________________________________________
concatenate_1 (Concatenate)     (None, 32, 32, 150)  0           conv2d_4[0][0]                   
                                                                 conv2d_8[0][0]                   
                                                                 conv2d_12[0][0]                  
__________________________________________________________________________________________________
conv2d_15 (Conv2D)              (None, 32, 32, 50)   187550      concatenate_1[0][0]              
__________________________________________________________________________________________________
conv2d_14 (Conv2D)              (None, 32, 32, 50)   120050      concatenate_1[0][0]              
__________________________________________________________________________________________________
conv2d_13 (Conv2D)              (None, 32, 32, 50)   67550       concatenate_1[0][0]              
__________________________________________________________________________________________________
input_1 (InputLayer)            (None, 32, 32, 3)    0                                            
__________________________________________________________________________________________________
prepared (Concatenate)          (None, 32, 32, 150)  0           conv2d_15[0][0]                  
                                                                 conv2d_14[0][0]                  
                                                                 conv2d_13[0][0]                  
__________________________________________________________________________________________________
concatenate_2 (Concatenate)     (None, 32, 32, 153)  0           input_1[0][0]                    
                                                                 prepared[0][0]                   
__________________________________________________________________________________________________
conv2d_16 (Conv2D)              (None, 32, 32, 50)   68900       concatenate_2[0][0]              
__________________________________________________________________________________________________
conv2d_20 (Conv2D)              (None, 32, 32, 50)   122450      concatenate_2[0][0]              
__________________________________________________________________________________________________
conv2d_24 (Conv2D)              (None, 32, 32, 50)   191300      concatenate_2[0][0]              
__________________________________________________________________________________________________
conv2d_17 (Conv2D)              (None, 32, 32, 50)   22550       conv2d_16[0][0]                  
__________________________________________________________________________________________________
conv2d_21 (Conv2D)              (None, 32, 32, 50)   40050       conv2d_20[0][0]                  
__________________________________________________________________________________________________
conv2d_25 (Conv2D)              (None, 32, 32, 50)   62550       conv2d_24[0][0]                  
__________________________________________________________________________________________________
conv2d_18 (Conv2D)              (None, 32, 32, 50)   22550       conv2d_17[0][0]                  
__________________________________________________________________________________________________
conv2d_22 (Conv2D)              (None, 32, 32, 50)   40050       conv2d_21[0][0]                  
__________________________________________________________________________________________________
conv2d_26 (Conv2D)              (None, 32, 32, 50)   62550       conv2d_25[0][0]                  
__________________________________________________________________________________________________
conv2d_19 (Conv2D)              (None, 32, 32, 50)   22550       conv2d_18[0][0]                  
__________________________________________________________________________________________________
conv2d_23 (Conv2D)              (None, 32, 32, 50)   40050       conv2d_22[0][0]                  
__________________________________________________________________________________________________
conv2d_27 (Conv2D)              (None, 32, 32, 50)   62550       conv2d_26[0][0]                  
__________________________________________________________________________________________________
concatenate_3 (Concatenate)     (None, 32, 32, 150)  0           conv2d_19[0][0]                  
                                                                 conv2d_23[0][0]                  
                                                                 conv2d_27[0][0]                  
__________________________________________________________________________________________________
conv2d_30 (Conv2D)              (None, 32, 32, 50)   187550      concatenate_3[0][0]              
__________________________________________________________________________________________________
conv2d_29 (Conv2D)              (None, 32, 32, 50)   120050      concatenate_3[0][0]              
__________________________________________________________________________________________________
conv2d_28 (Conv2D)              (None, 32, 32, 50)   67550       concatenate_3[0][0]              
__________________________________________________________________________________________________
hidden (Concatenate)            (None, 32, 32, 150)  0           conv2d_30[0][0]                  
                                                                 conv2d_29[0][0]                  
                                                                 conv2d_28[0][0]                  
__________________________________________________________________________________________________
hidden_secret (Conv2D)          (None, 32, 32, 3)    453         hidden[0][0]                     
__________________________________________________________________________________________________
revealing_model (Model)         (None, 32, 32, 3)    758703      hidden_secret[0][0]              
__________________________________________________________________________________________________
censorship_detection (Model)    (None, 1)            354721      hidden_secret[0][0]              
==================================================================================================
Total params: 3,005,377
Trainable params: 2,650,656
Non-trainable params: 354,721
__________________________________________________________________________________________________
 * Serving Flask app "app" (lazy loading)
 * Environment: production
   WARNING: Do not use the development server in a production environment.
   Use a production WSGI server instead.
 * Debug mode: on
__________________________________________________________________________________________________
Layer (type)                    Output Shape         Param #     Connected to                     
==================================================================================================
input_2 (InputLayer)            (None, 32, 32, 3)    0                                            
__________________________________________________________________________________________________
conv2d_1 (Conv2D)               (None, 32, 32, 50)   1400        input_2[0][0]                    
__________________________________________________________________________________________________
conv2d_5 (Conv2D)               (None, 32, 32, 50)   2450        input_2[0][0]                    
__________________________________________________________________________________________________
conv2d_9 (Conv2D)               (None, 32, 32, 50)   3800        input_2[0][0]                    
__________________________________________________________________________________________________
conv2d_2 (Conv2D)               (None, 32, 32, 50)   22550       conv2d_1[0][0]                   
__________________________________________________________________________________________________
conv2d_6 (Conv2D)               (None, 32, 32, 50)   40050       conv2d_5[0][0]                   
__________________________________________________________________________________________________
conv2d_10 (Conv2D)              (None, 32, 32, 50)   62550       conv2d_9[0][0]                   
__________________________________________________________________________________________________
conv2d_3 (Conv2D)               (None, 32, 32, 50)   22550       conv2d_2[0][0]                   
__________________________________________________________________________________________________
conv2d_7 (Conv2D)               (None, 32, 32, 50)   40050       conv2d_6[0][0]                   
__________________________________________________________________________________________________
conv2d_11 (Conv2D)              (None, 32, 32, 50)   62550       conv2d_10[0][0]                  
__________________________________________________________________________________________________
conv2d_4 (Conv2D)               (None, 32, 32, 50)   22550       conv2d_3[0][0]                   
__________________________________________________________________________________________________
conv2d_8 (Conv2D)               (None, 32, 32, 50)   40050       conv2d_7[0][0]                   
__________________________________________________________________________________________________
conv2d_12 (Conv2D)              (None, 32, 32, 50)   62550       conv2d_11[0][0]                  
__________________________________________________________________________________________________
concatenate_1 (Concatenate)     (None, 32, 32, 150)  0           conv2d_4[0][0]                   
                                                                 conv2d_8[0][0]                   
                                                                 conv2d_12[0][0]                  
__________________________________________________________________________________________________
conv2d_15 (Conv2D)              (None, 32, 32, 50)   187550      concatenate_1[0][0]              
__________________________________________________________________________________________________
conv2d_14 (Conv2D)              (None, 32, 32, 50)   120050      concatenate_1[0][0]              
__________________________________________________________________________________________________
conv2d_13 (Conv2D)              (None, 32, 32, 50)   67550       concatenate_1[0][0]              
__________________________________________________________________________________________________
input_1 (InputLayer)            (None, 32, 32, 3)    0                                            
__________________________________________________________________________________________________
prepared (Concatenate)          (None, 32, 32, 150)  0           conv2d_15[0][0]                  
                                                                 conv2d_14[0][0]                  
                                                                 conv2d_13[0][0]                  
__________________________________________________________________________________________________
concatenate_2 (Concatenate)     (None, 32, 32, 153)  0           input_1[0][0]                    
                                                                 prepared[0][0]                   
__________________________________________________________________________________________________
conv2d_16 (Conv2D)              (None, 32, 32, 50)   68900       concatenate_2[0][0]              
__________________________________________________________________________________________________
conv2d_20 (Conv2D)              (None, 32, 32, 50)   122450      concatenate_2[0][0]              
__________________________________________________________________________________________________
conv2d_24 (Conv2D)              (None, 32, 32, 50)   191300      concatenate_2[0][0]              
__________________________________________________________________________________________________
conv2d_17 (Conv2D)              (None, 32, 32, 50)   22550       conv2d_16[0][0]                  
__________________________________________________________________________________________________
conv2d_21 (Conv2D)              (None, 32, 32, 50)   40050       conv2d_20[0][0]                  
__________________________________________________________________________________________________
conv2d_25 (Conv2D)              (None, 32, 32, 50)   62550       conv2d_24[0][0]                  
__________________________________________________________________________________________________
conv2d_18 (Conv2D)              (None, 32, 32, 50)   22550       conv2d_17[0][0]                  
__________________________________________________________________________________________________
conv2d_22 (Conv2D)              (None, 32, 32, 50)   40050       conv2d_21[0][0]                  
__________________________________________________________________________________________________
conv2d_26 (Conv2D)              (None, 32, 32, 50)   62550       conv2d_25[0][0]                  
__________________________________________________________________________________________________
conv2d_19 (Conv2D)              (None, 32, 32, 50)   22550       conv2d_18[0][0]                  
__________________________________________________________________________________________________
conv2d_23 (Conv2D)              (None, 32, 32, 50)   40050       conv2d_22[0][0]                  
__________________________________________________________________________________________________
conv2d_27 (Conv2D)              (None, 32, 32, 50)   62550       conv2d_26[0][0]                  
__________________________________________________________________________________________________
concatenate_3 (Concatenate)     (None, 32, 32, 150)  0           conv2d_19[0][0]                  
                                                                 conv2d_23[0][0]                  
                                                                 conv2d_27[0][0]                  
__________________________________________________________________________________________________
conv2d_30 (Conv2D)              (None, 32, 32, 50)   187550      concatenate_3[0][0]              
__________________________________________________________________________________________________
conv2d_29 (Conv2D)              (None, 32, 32, 50)   120050      concatenate_3[0][0]              
__________________________________________________________________________________________________
conv2d_28 (Conv2D)              (None, 32, 32, 50)   67550       concatenate_3[0][0]              
__________________________________________________________________________________________________
hidden (Concatenate)            (None, 32, 32, 150)  0           conv2d_30[0][0]                  __________________________________________________________________________________________________
Layer (type)                    Output Shape         Param #     Connected to                     
==================================================================================================
input_2 (InputLayer)            (None, 32, 32, 3)    0                                            
__________________________________________________________________________________________________
conv2d_1 (Conv2D)               (None, 32, 32, 50)   1400        input_2[0][0]                    
__________________________________________________________________________________________________
conv2d_5 (Conv2D)               (None, 32, 32, 50)   2450        input_2[0][0]                    
__________________________________________________________________________________________________
conv2d_9 (Conv2D)               (None, 32, 32, 50)   3800        input_2[0][0]                    
__________________________________________________________________________________________________
conv2d_2 (Conv2D)               (None, 32, 32, 50)   22550       conv2d_1[0][0]                   
__________________________________________________________________________________________________
conv2d_6 (Conv2D)               (None, 32, 32, 50)   40050       conv2d_5[0][0]                   
__________________________________________________________________________________________________
conv2d_10 (Conv2D)              (None, 32, 32, 50)   62550       conv2d_9[0][0]                   
__________________________________________________________________________________________________
conv2d_3 (Conv2D)               (None, 32, 32, 50)   22550       conv2d_2[0][0]                   
__________________________________________________________________________________________________
conv2d_7 (Conv2D)               (None, 32, 32, 50)   40050       conv2d_6[0][0]                   
__________________________________________________________________________________________________
conv2d_11 (Conv2D)              (None, 32, 32, 50)   62550       conv2d_10[0][0]                  
__________________________________________________________________________________________________
conv2d_4 (Conv2D)               (None, 32, 32, 50)   22550       conv2d_3[0][0]                   
__________________________________________________________________________________________________
conv2d_8 (Conv2D)               (None, 32, 32, 50)   40050       conv2d_7[0][0]                   
__________________________________________________________________________________________________
conv2d_12 (Conv2D)              (None, 32, 32, 50)   62550       conv2d_11[0][0]                  
__________________________________________________________________________________________________
concatenate_1 (Concatenate)     (None, 32, 32, 150)  0           conv2d_4[0][0]                   
                                                                 conv2d_8[0][0]                   
                                                                 conv2d_12[0][0]                  
__________________________________________________________________________________________________
conv2d_15 (Conv2D)              (None, 32, 32, 50)   187550      concatenate_1[0][0]              
__________________________________________________________________________________________________
conv2d_14 (Conv2D)              (None, 32, 32, 50)   120050      concatenate_1[0][0]              
__________________________________________________________________________________________________
conv2d_13 (Conv2D)              (None, 32, 32, 50)   67550       concatenate_1[0][0]              
__________________________________________________________________________________________________
input_1 (InputLayer)            (None, 32, 32, 3)    0                                            
__________________________________________________________________________________________________
prepared (Concatenate)          (None, 32, 32, 150)  0           conv2d_15[0][0]                  
                                                                 conv2d_14[0][0]                  
                                                                 conv2d_13[0][0]                  
__________________________________________________________________________________________________
concatenate_2 (Concatenate)     (None, 32, 32, 153)  0           input_1[0][0]                    
                                                                 prepared[0][0]                   
__________________________________________________________________________________________________
conv2d_16 (Conv2D)              (None, 32, 32, 50)   68900       concatenate_2[0][0]              
__________________________________________________________________________________________________
conv2d_20 (Conv2D)              (None, 32, 32, 50)   122450      concatenate_2[0][0]              
__________________________________________________________________________________________________
conv2d_24 (Conv2D)              (None, 32, 32, 50)   191300      concatenate_2[0][0]              
__________________________________________________________________________________________________
conv2d_17 (Conv2D)              (None, 32, 32, 50)   22550       conv2d_16[0][0]                  
__________________________________________________________________________________________________
conv2d_21 (Conv2D)              (None, 32, 32, 50)   40050       conv2d_20[0][0]                  
__________________________________________________________________________________________________
conv2d_25 (Conv2D)              (None, 32, 32, 50)   62550       conv2d_24[0][0]                  
__________________________________________________________________________________________________
conv2d_18 (Conv2D)              (None, 32, 32, 50)   22550       conv2d_17[0][0]                  
__________________________________________________________________________________________________
conv2d_22 (Conv2D)              (None, 32, 32, 50)   40050       conv2d_21[0][0]                  
__________________________________________________________________________________________________
conv2d_26 (Conv2D)              (None, 32, 32, 50)   62550       conv2d_25[0][0]                  
__________________________________________________________________________________________________
conv2d_19 (Conv2D)              (None, 32, 32, 50)   22550       conv2d_18[0][0]                  
__________________________________________________________________________________________________
conv2d_23 (Conv2D)              (None, 32, 32, 50)   40050       conv2d_22[0][0]                  
__________________________________________________________________________________________________
conv2d_27 (Conv2D)              (None, 32, 32, 50)   62550       conv2d_26[0][0]                  
__________________________________________________________________________________________________
concatenate_3 (Concatenate)     (None, 32, 32, 150)  0           conv2d_19[0][0]                  
                                                                 conv2d_23[0][0]                  
                                                                 conv2d_27[0][0]                  
__________________________________________________________________________________________________
conv2d_30 (Conv2D)              (None, 32, 32, 50)   187550      concatenate_3[0][0]              
__________________________________________________________________________________________________
conv2d_29 (Conv2D)              (None, 32, 32, 50)   120050      concatenate_3[0][0]              
__________________________________________________________________________________________________
conv2d_28 (Conv2D)              (None, 32, 32, 50)   67550       concatenate_3[0][0]              
__________________________________________________________________________________________________
hidden (Concatenate)            (None, 32, 32, 150)  0           conv2d_30[0][0]                  
                                                                 conv2d_29[0][0]                  
                                                                 conv2d_28[0][0]                  
__________________________________________________________________________________________________
hidden_secret (Conv2D)          (None, 32, 32, 3)    453         hidden[0][0]                     
__________________________________________________________________________________________________
revealing_model (Model)         (None, 32, 32, 3)    758703      hidden_secret[0][0]              
__________________________________________________________________________________________________
censorship_detection (Model)    (None, 1)            354721      hidden_secret[0][0]              
==================================================================================================
Total params: 3,005,377
Trainable params: 2,650,656
Non-trainable params: 354,721
__________________________________________________________________________________________________
 * Serving Flask app "app" (lazy loading)
 * Environment: production
   WARNING: Do not use the development server in a production environment.
   Use a production WSGI server instead.
 * Debug mode: on
__________________________________________________________________________________________________
Layer (type)                    Output Shape         Param #     Connected to                     
==================================================================================================
input_2 (InputLayer)            (None, 32, 32, 3)    0                                            
__________________________________________________________________________________________________
conv2d_1 (Conv2D)               (None, 32, 32, 50)   1400        input_2[0][0]                    
__________________________________________________________________________________________________
conv2d_5 (Conv2D)               (None, 32, 32, 50)   2450        input_2[0][0]                    
__________________________________________________________________________________________________
conv2d_9 (Conv2D)               (None, 32, 32, 50)   3800        input_2[0][0]                    
__________________________________________________________________________________________________
conv2d_2 (Conv2D)               (None, 32, 32, 50)   22550       conv2d_1[0][0]                   
__________________________________________________________________________________________________
conv2d_6 (Conv2D)               (None, 32, 32, 50)   40050       conv2d_5[0][0]                   
__________________________________________________________________________________________________
conv2d_10 (Conv2D)              (None, 32, 32, 50)   62550       conv2d_9[0][0]                   
__________________________________________________________________________________________________
conv2d_3 (Conv2D)               (None, 32, 32, 50)   22550       conv2d_2[0][0]                   
__________________________________________________________________________________________________
conv2d_7 (Conv2D)               (None, 32, 32, 50)   40050       conv2d_6[0][0]                   
__________________________________________________________________________________________________
conv2d_11 (Conv2D)              (None, 32, 32, 50)   62550       conv2d_10[0][0]                  
__________________________________________________________________________________________________
conv2d_4 (Conv2D)               (None, 32, 32, 50)   22550       conv2d_3[0][0]                   
__________________________________________________________________________________________________
conv2d_8 (Conv2D)               (None, 32, 32, 50)   40050       conv2d_7[0][0]                   
__________________________________________________________________________________________________
conv2d_12 (Conv2D)              (None, 32, 32, 50)   62550       conv2d_11[0][0]                  
__________________________________________________________________________________________________
concatenate_1 (Concatenate)     (None, 32, 32, 150)  0           conv2d_4[0][0]                   
                                                                 conv2d_8[0][0]                   
                                                                 conv2d_12[0][0]                  
__________________________________________________________________________________________________
conv2d_15 (Conv2D)              (None, 32, 32, 50)   187550      concatenate_1[0][0]              
__________________________________________________________________________________________________
conv2d_14 (Conv2D)              (None, 32, 32, 50)   120050      concatenate_1[0][0]              
__________________________________________________________________________________________________
conv2d_13 (Conv2D)              (None, 32, 32, 50)   67550       concatenate_1[0][0]              
__________________________________________________________________________________________________
input_1 (InputLayer)            (None, 32, 32, 3)    0                                            
__________________________________________________________________________________________________
prepared (Concatenate)          (None, 32, 32, 150)  0           conv2d_15[0][0]                  
                                                                 conv2d_14[0][0]                  
                                                                 conv2d_13[0][0]                  
__________________________________________________________________________________________________
concatenate_2 (Concatenate)     (None, 32, 32, 153)  0           input_1[0][0]                    
                                                                 prepared[0][0]                   
__________________________________________________________________________________________________
conv2d_16 (Conv2D)              (None, 32, 32, 50)   68900       concatenate_2[0][0]              
__________________________________________________________________________________________________
conv2d_20 (Conv2D)              (None, 32, 32, 50)   122450      concatenate_2[0][0]              
__________________________________________________________________________________________________
conv2d_24 (Conv2D)              (None, 32, 32, 50)   191300      concatenate_2[0][0]              
__________________________________________________________________________________________________
conv2d_17 (Conv2D)              (None, 32, 32, 50)   22550       conv2d_16[0][0]                  
__________________________________________________________________________________________________
conv2d_21 (Conv2D)              (None, 32, 32, 50)   40050       conv2d_20[0][0]                  
__________________________________________________________________________________________________
conv2d_25 (Conv2D)              (None, 32, 32, 50)   62550       conv2d_24[0][0]                  
__________________________________________________________________________________________________
conv2d_18 (Conv2D)              (None, 32, 32, 50)   22550       conv2d_17[0][0]                  
__________________________________________________________________________________________________
conv2d_22 (Conv2D)              (None, 32, 32, 50)   40050       conv2d_21[0][0]                  
__________________________________________________________________________________________________
conv2d_26 (Conv2D)              (None, 32, 32, 50)   62550       conv2d_25[0][0]                  
__________________________________________________________________________________________________
conv2d_19 (Conv2D)              (None, 32, 32, 50)   22550       conv2d_18[0][0]                  
__________________________________________________________________________________________________
conv2d_23 (Conv2D)              (None, 32, 32, 50)   40050       conv2d_22[0][0]                  
__________________________________________________________________________________________________
conv2d_27 (Conv2D)              (None, 32, 32, 50)   62550       conv2d_26[0][0]                  
__________________________________________________________________________________________________
concatenate_3 (Concatenate)     (None, 32, 32, 150)  0           conv2d_19[0][0]                  
                                                                 conv2d_23[0][0]                  
                                                                 conv2d_27[0][0]                  
__________________________________________________________________________________________________
conv2d_30 (Conv2D)              (None, 32, 32, 50)   187550      concatenate_3[0][0]              
__________________________________________________________________________________________________
conv2d_29 (Conv2D)              (None, 32, 32, 50)   120050      concatenate_3[0][0]              
__________________________________________________________________________________________________
conv2d_28 (Conv2D)              (None, 32, 32, 50)   67550       concatenate_3[0][0]              
__________________________________________________________________________________________________
hidden (Concatenate)            (None, 32, 32, 150)  0           conv2d_30[0][0]                  __________________________________________________________________________________________________
Layer (type)                    Output Shape         Param #     Connected to                     
==================================================================================================
input_2 (InputLayer)            (None, 32, 32, 3)    0                                            
__________________________________________________________________________________________________
conv2d_1 (Conv2D)               (None, 32, 32, 50)   1400        input_2[0][0]                    
__________________________________________________________________________________________________
conv2d_5 (Conv2D)               (None, 32, 32, 50)   2450        input_2[0][0]                    
__________________________________________________________________________________________________
conv2d_9 (Conv2D)               (None, 32, 32, 50)   3800        input_2[0][0]                    
__________________________________________________________________________________________________
conv2d_2 (Conv2D)               (None, 32, 32, 50)   22550       conv2d_1[0][0]                   
__________________________________________________________________________________________________
conv2d_6 (Conv2D)               (None, 32, 32, 50)   40050       conv2d_5[0][0]                   
__________________________________________________________________________________________________
conv2d_10 (Conv2D)              (None, 32, 32, 50)   62550       conv2d_9[0][0]                   
__________________________________________________________________________________________________
conv2d_3 (Conv2D)               (None, 32, 32, 50)   22550       conv2d_2[0][0]                   
__________________________________________________________________________________________________
conv2d_7 (Conv2D)               (None, 32, 32, 50)   40050       conv2d_6[0][0]                   
__________________________________________________________________________________________________
conv2d_11 (Conv2D)              (None, 32, 32, 50)   62550       conv2d_10[0][0]                  
__________________________________________________________________________________________________
conv2d_4 (Conv2D)               (None, 32, 32, 50)   22550       conv2d_3[0][0]                   
__________________________________________________________________________________________________
conv2d_8 (Conv2D)               (None, 32, 32, 50)   40050       conv2d_7[0][0]                   
__________________________________________________________________________________________________
conv2d_12 (Conv2D)              (None, 32, 32, 50)   62550       conv2d_11[0][0]                  
__________________________________________________________________________________________________
concatenate_1 (Concatenate)     (None, 32, 32, 150)  0           conv2d_4[0][0]                   
                                                                 conv2d_8[0][0]                   
                                                                 conv2d_12[0][0]                  
__________________________________________________________________________________________________
conv2d_15 (Conv2D)              (None, 32, 32, 50)   187550      concatenate_1[0][0]              
__________________________________________________________________________________________________
conv2d_14 (Conv2D)              (None, 32, 32, 50)   120050      concatenate_1[0][0]              
__________________________________________________________________________________________________
conv2d_13 (Conv2D)              (None, 32, 32, 50)   67550       concatenate_1[0][0]              
__________________________________________________________________________________________________
input_1 (InputLayer)            (None, 32, 32, 3)    0                                            
__________________________________________________________________________________________________
prepared (Concatenate)          (None, 32, 32, 150)  0           conv2d_15[0][0]                  
                                                                 conv2d_14[0][0]                  
                                                                 conv2d_13[0][0]                  
__________________________________________________________________________________________________
concatenate_2 (Concatenate)     (None, 32, 32, 153)  0           input_1[0][0]                    
                                                                 prepared[0][0]                   
__________________________________________________________________________________________________
conv2d_16 (Conv2D)              (None, 32, 32, 50)   68900       concatenate_2[0][0]              
__________________________________________________________________________________________________
conv2d_20 (Conv2D)              (None, 32, 32, 50)   122450      concatenate_2[0][0]              
__________________________________________________________________________________________________
conv2d_24 (Conv2D)              (None, 32, 32, 50)   191300      concatenate_2[0][0]              
__________________________________________________________________________________________________
conv2d_17 (Conv2D)              (None, 32, 32, 50)   22550       conv2d_16[0][0]                  
__________________________________________________________________________________________________
conv2d_21 (Conv2D)              (None, 32, 32, 50)   40050       conv2d_20[0][0]                  
__________________________________________________________________________________________________
conv2d_25 (Conv2D)              (None, 32, 32, 50)   62550       conv2d_24[0][0]                  
__________________________________________________________________________________________________
conv2d_18 (Conv2D)              (None, 32, 32, 50)   22550       conv2d_17[0][0]                  
__________________________________________________________________________________________________
conv2d_22 (Conv2D)              (None, 32, 32, 50)   40050       conv2d_21[0][0]                  
__________________________________________________________________________________________________
conv2d_26 (Conv2D)              (None, 32, 32, 50)   62550       conv2d_25[0][0]                  
__________________________________________________________________________________________________
conv2d_19 (Conv2D)              (None, 32, 32, 50)   22550       conv2d_18[0][0]                  
__________________________________________________________________________________________________
conv2d_23 (Conv2D)              (None, 32, 32, 50)   40050       conv2d_22[0][0]                  
__________________________________________________________________________________________________
conv2d_27 (Conv2D)              (None, 32, 32, 50)   62550       conv2d_26[0][0]                  
__________________________________________________________________________________________________
concatenate_3 (Concatenate)     (None, 32, 32, 150)  0           conv2d_19[0][0]                  
                                                                 conv2d_23[0][0]                  
                                                                 conv2d_27[0][0]                  
__________________________________________________________________________________________________
conv2d_30 (Conv2D)              (None, 32, 32, 50)   187550      concatenate_3[0][0]              
__________________________________________________________________________________________________
conv2d_29 (Conv2D)              (None, 32, 32, 50)   120050      concatenate_3[0][0]              
__________________________________________________________________________________________________
conv2d_28 (Conv2D)              (None, 32, 32, 50)   67550       concatenate_3[0][0]              
__________________________________________________________________________________________________
hidden (Concatenate)            (None, 32, 32, 150)  0           conv2d_30[0][0]                  
                                                                 conv2d_29[0][0]                  
                                                                 conv2d_28[0][0]                  
__________________________________________________________________________________________________
hidden_secret (Conv2D)          (None, 32, 32, 3)    453         hidden[0][0]                     
__________________________________________________________________________________________________
revealing_model (Model)         (None, 32, 32, 3)    758703      hidden_secret[0][0]              
__________________________________________________________________________________________________
censorship_detection (Model)    (None, 1)            354721      hidden_secret[0][0]              
==================================================================================================
Total params: 3,005,377
Trainable params: 2,650,656
Non-trainable params: 354,721
__________________________________________________________________________________________________
 * Serving Flask app "app" (lazy loading)
 * Environment: production
   WARNING: Do not use the development server in a production environment.
…
