__________________________________________________________________________________________________
Layer (type)                    Output Shape         Param #     Connected to                     
==================================================================================================
input_1 (InputLayer)            (None, 32, 32, 3)    0                                            
__________________________________________________________________________________________________
conv2d_1 (Conv2D)               (None, 32, 32, 32)   896         input_1[0][0]                    
__________________________________________________________________________________________________
conv2d_5 (Conv2D)               (None, 32, 32, 32)   1568        input_1[0][0]                    
__________________________________________________________________________________________________
conv2d_9 (Conv2D)               (None, 32, 32, 32)   2432        input_1[0][0]                    
__________________________________________________________________________________________________
conv2d_2 (Conv2D)               (None, 32, 32, 32)   9248        conv2d_1[0][0]                   
__________________________________________________________________________________________________
conv2d_6 (Conv2D)               (None, 32, 32, 32)   16416       conv2d_5[0][0]                   
__________________________________________________________________________________________________
conv2d_10 (Conv2D)              (None, 32, 32, 32)   25632       conv2d_9[0][0]                   
__________________________________________________________________________________________________
conv2d_3 (Conv2D)               (None, 32, 32, 32)   9248        conv2d_2[0][0]                   
__________________________________________________________________________________________________
conv2d_7 (Conv2D)               (None, 32, 32, 32)   16416       conv2d_6[0][0]                   
__________________________________________________________________________________________________
conv2d_11 (Conv2D)              (None, 32, 32, 32)   25632       conv2d_10[0][0]                  
__________________________________________________________________________________________________
conv2d_4 (Conv2D)               (None, 32, 32, 32)   9248        conv2d_3[0][0]                   
__________________________________________________________________________________________________
conv2d_8 (Conv2D)               (None, 32, 32, 32)   16416       conv2d_7[0][0]                   
__________________________________________________________________________________________________
conv2d_12 (Conv2D)              (None, 32, 32, 32)   25632       conv2d_11[0][0]                  
__________________________________________________________________________________________________
concatenate_1 (Concatenate)     (None, 32, 32, 96)   0           conv2d_4[0][0]                   
                                                                 conv2d_8[0][0]                   
                                                                 conv2d_12[0][0]                  
__________________________________________________________________________________________________
conv2d_13 (Conv2D)              (None, 32, 32, 32)   27680       concatenate_1[0][0]              
__________________________________________________________________________________________________
conv2d_14 (Conv2D)              (None, 32, 32, 32)   49184       concatenate_1[0][0]              
__________________________________________________________________________________________________
conv2d_15 (Conv2D)              (None, 32, 32, 32)   76832       concatenate_1[0][0]              
__________________________________________________________________________________________________
revealed (Concatenate)          (None, 32, 32, 96)   0           conv2d_13[0][0]                  
                                                                 conv2d_14[0][0]                  
                                                                 conv2d_15[0][0]                  
__________________________________________________________________________________________________
reconstructed_secret (Conv2D)   (None, 32, 32, 3)    291         revealed[0][0]                   
==================================================================================================
Total params: 312,771
Trainable params: 312,771
Non-trainable params: 0
__________________________________________________________________________________________________

 epoch 0
[116. 121. 113.]
[0 1 1]
Epoch 1/1
  32/3200 [..............................
…
