_________________________________________________________________
Layer (type)                 Output Shape              Param #   
=================================================================
message_input (InputLayer)   (None, 64)                0         
_________________________________________________________________
dense_1 (Dense)              (None, 1024)              66560     
_________________________________________________________________
dense_2 (Dense)              (None, 1024)              1049600   
_________________________________________________________________
dense_3 (Dense)              (None, 1024)              1049600   
_________________________________________________________________
dense_4 (Dense)              (None, 1024)              1049600   
_________________________________________________________________
dropout_1 (Dropout)          (None, 1024)              0         
_________________________________________________________________
dense_5 (Dense)              (None, 64)                65600     
=================================================================
Total params: 3,280,960
Trainable params: 3,280,960
Non-trainable params: 0
_________________________________________________________________
using key: [0 0 0 0 0 0 1 1 0 1 0 1 0 0 1 1 1 1 0 1 1 1 1 1 0 1 1 1 1 1 1 0 1 1 1 0 0
 1 0 1 0 0 0 1 0 0 1 0 1 1 1 1 0 1 0 1 1 0 1 1 0 1 0 1]

 epoch 0
Epoch 1/1
  128/32000 [..........
…
