__________________________________________________________________________________________________
Layer (type)                    Output Shape         Param #     Connected to                     
==================================================================================================
input_1 (InputLayer)            (None, 16)           0                                            
__________________________________________________________________________________________________
input_2 (InputLayer)            (None, 16)           0                                            
__________________________________________________________________________________________________
intertwine_1 (Intertwine)       (None, 32)           0           input_1[0][0]                    
                                                                 input_2[0][0]                    
__________________________________________________________________________________________________
reshape_1 (Reshape)             (None, 32, 1)        0           intertwine_1[0][0]               
__________________________________________________________________________________________________
conv1d_1 (Conv1D)               (None, 16, 20)       60          reshape_1[0][0]                  
__________________________________________________________________________________________________
time_distributed_1 (TimeDistrib (None, 16, 1)        21          conv1d_1[0][0]                   
__________________________________________________________________________________________________
flatten_1 (Flatten)             (None, 16)           0           time_distributed_1[0][0]         
==================================================================================================
Total params: 81
Trainable params: 81
Non-trainable params: 0
__________________________________________________________________________________________________
