__________________________________________________________________________________________________
Layer (type)                    Output Shape         Param #     Connected to                     
==================================================================================================
input_2 (InputLayer)            (None, 32, 32, 1)    0                                            
__________________________________________________________________________________________________
conv2d_1 (Conv2D)               (None, 32, 32, 50)   500         input_2[0][0]                    
__________________________________________________________________________________________________
conv2d_5 (Conv2D)               (None, 32, 32, 50)   850         input_2[0][0]                    
__________________________________________________________________________________________________
conv2d_9 (Conv2D)               (None, 32, 32, 50)   1300        input_2[0][0]                    
__________________________________________________________________________________________________
conv2d_2 (Conv2D)               (None, 32, 32, 50)   22550       conv2d_1[0][0]                   
__________________________________________________________________________________________________
conv2d_6 (Conv2D)               (None, 32, 32, 50)   40050       conv2d_5[0][0]                   
__________________________________________________________________________________________________
conv2d_10 (Conv2D)              (None, 32, 32, 50)   62550       conv2d_9[0][0]                   
__________________________________________________________________________________________________
conv2d_3 (Conv2D)               (None, 32, 32, 50)   22550       conv2d_2[0][0]                   
__________________________________________________________________________________________________
conv2d_7 (Conv2D)               (None, 32, 32, 50)   40050       conv2d_6[0][0]                   
__________________________________________________________________________________________________
conv2d_11 (Conv2D)              (None, 32, 32, 50)   62550       conv2d_10[0][0]                  
__________________________________________________________________________________________________
conv2d_4 (Conv2D)               (None, 32, 32, 50)   22550       conv2d_3[0][0]                   
__________________________________________________________________________________________________
conv2d_8 (Conv2D)               (None, 32, 32, 50)   40050       conv2d_7[0][0]                   
__________________________________________________________________________________________________
conv2d_12 (Conv2D)              (None, 32, 32, 50)   62550       conv2d_11[0][0]                  
__________________________________________________________________________________________________
concatenate_1 (Concatenate)     (None, 32, 32, 150)  0           conv2d_4[0][0]                   
                                                                 conv2d_8[0][0]                   
                                                                 conv2d_12[0][0]                  
__________________________________________________________________________________________________
conv2d_15 (Conv2D)              (None, 32, 32, 50)   187550      concatenate_1[0][0]              
__________________________________________________________________________________________________
conv2d_14 (Conv2D)              (None, 32, 32, 50)   120050      concatenate_1[0][0]              
__________________________________________________________________________________________________
conv2d_13 (Conv2D)              (None, 32, 32, 50)   67550       concatenate_1[0][0]              
__________________________________________________________________________________________________
input_1 (InputLayer)            (None, 32, 32, 3)    0                                            
__________________________________________________________________________________________________
prepared (Concatenate)          (None, 32, 32, 150)  0           conv2d_15[0][0]                  
                                                                 conv2d_14[0][0]                  
                                                                 conv2d_13[0][0]                  
__________________________________________________________________________________________________
concatenate_2 (Concatenate)     (None, 32, 32, 153)  0           input_1[0][0]                    
                                                                 prepared[0][0]                   
__________________________________________________________________________________________________
conv2d_16 (Conv2D)              (None, 32, 32, 50)   68900       concatenate_2[0][0]              
__________________________________________________________________________________________________
conv2d_20 (Conv2D)              (None, 32, 32, 50)   122450      concatenate_2[0][0]              
__________________________________________________________________________________________________
conv2d_24 (Conv2D)              (None, 32, 32, 50)   191300      concatenate_2[0][0]              
__________________________________________________________________________________________________
conv2d_17 (Conv2D)              (None, 32, 32, 50)   22550       conv2d_16[0][0]                  
__________________________________________________________________________________________________
conv2d_21 (Conv2D)              (None, 32, 32, 50)   40050       conv2d_20[0][0]                  
__________________________________________________________________________________________________
conv2d_25 (Conv2D)              (None, 32, 32, 50)   62550       conv2d_24[0][0]                  
__________________________________________________________________________________________________
conv2d_18 (Conv2D)              (None, 32, 32, 50)   22550       conv2d_17[0][0]                  
__________________________________________________________________________________________________
conv2d_22 (Conv2D)              (None, 32, 32, 50)   40050       conv2d_21[0][0]                  
__________________________________________________________________________________________________
conv2d_26 (Conv2D)              (None, 32, 32, 50)   62550       conv2d_25[0][0]                  
__________________________________________________________________________________________________
conv2d_19 (Conv2D)              (None, 32, 32, 50)   22550       conv2d_18[0][0]                  
__________________________________________________________________________________________________
conv2d_23 (Conv2D)              (None, 32, 32, 50)   40050       conv2d_22[0][0]                  
__________________________________________________________________________________________________
conv2d_27 (Conv2D)              (None, 32, 32, 50)   62550       conv2d_26[0][0]                  
__________________________________________________________________________________________________
concatenate_3 (Concatenate)     (None, 32, 32, 150)  0           conv2d_19[0][0]                  
                                                                 conv2d_23[0][0]                  
                                                                 conv2d_27[0][0]                  
__________________________________________________________________________________________________
conv2d_28 (Conv2D)              (None, 32, 32, 50)   67550       concatenate_3[0][0]              
__________________________________________________________________________________________________
conv2d_29 (Conv2D)              (None, 32, 32, 50)   120050      concatenate_3[0][0]              
__________________________________________________________________________________________________
conv2d_30 (Conv2D)              (None, 32, 32, 50)   187550      concatenate_3[0][0]              
__________________________________________________________________________________________________
hidden (Concatenate)            (None, 32, 32, 150)  0           conv2d_28[0][0]                  
                                                                 conv2d_29[0][0]                  
                                                                 conv2d_30[0][0]                  
__________________________________________________________________________________________________
hidden_secret (Conv2D)          (None, 32, 32, 3)    453         hidden[0][0]                     
__________________________________________________________________________________________________
conv2d_31 (Conv2D)              (None, 32, 32, 50)   1400        hidden_secret[0][0]              
__________________________________________________________________________________________________
conv2d_35 (Conv2D)              (None, 32, 32, 50)   2450        hidden_secret[0][0]              
__________________________________________________________________________________________________
conv2d_39 (Conv2D)              (None, 32, 32, 50)   3800        hidden_secret[0][0]              
__________________________________________________________________________________________________
conv2d_32 (Conv2D)              (None, 32, 32, 50)   22550       conv2d_31[0][0]                  
__________________________________________________________________________________________________
conv2d_36 (Conv2D)              (None, 32, 32, 50)   40050       conv2d_35[0][0]                  
__________________________________________________________________________________________________
conv2d_40 (Conv2D)              (None, 32, 32, 50)   62550       conv2d_39[0][0]                  
__________________________________________________________________________________________________
conv2d_33 (Conv2D)              (None, 32, 32, 50)   22550       conv2d_32[0][0]                  
__________________________________________________________________________________________________
conv2d_37 (Conv2D)              (None, 32, 32, 50)   40050       conv2d_36[0][0]                  
__________________________________________________________________________________________________
conv2d_41 (Conv2D)              (None, 32, 32, 50)   62550       conv2d_40[0][0]                  
__________________________________________________________________________________________________
conv2d_34 (Conv2D)              (None, 32, 32, 50)   22550       conv2d_33[0][0]                  
__________________________________________________________________________________________________
conv2d_38 (Conv2D)              (None, 32, 32, 50)   40050       conv2d_37[0][0]                  
__________________________________________________________________________________________________
conv2d_42 (Conv2D)              (None, 32, 32, 50)   62550       conv2d_41[0][0]                  
__________________________________________________________________________________________________
concatenate_4 (Concatenate)     (None, 32, 32, 150)  0           conv2d_34[0][0]                  
                                                                 conv2d_38[0][0]                  
                                                                 conv2d_42[0][0]                  
__________________________________________________________________________________________________
conv2d_43 (Conv2D)              (None, 32, 32, 50)   67550       concatenate_4[0][0]              
__________________________________________________________________________________________________
conv2d_44 (Conv2D)              (None, 32, 32, 50)   120050      concatenate_4[0][0]              
__________________________________________________________________________________________________
conv2d_45 (Conv2D)              (None, 32, 32, 50)   187550      concatenate_4[0][0]              
__________________________________________________________________________________________________
revealed (Concatenate)          (None, 32, 32, 150)  0           conv2d_43[0][0]                  
                                                                 conv2d_44[0][0]                  
                                                                 conv2d_45[0][0]                  
__________________________________________________________________________________________________
reconstructed_secret (Conv2D)   (None, 32, 32, 1)    151         revealed[0][0]                   
==================================================================================================
Total params: 2,645,354
Trainable params: 2,645,354
Non-trainable params: 0
__________________________________________________________________________________________________
epoch [ 1 / 50]
>> generating data
>> fitting
Epoch 1/1
