
 The network architecture of Bob: 

__________________________________________________________________________________________________
Layer (type)                    Output Shape         Param #     Connected to                     
==================================================================================================
message_input (InputLayer)      (None, 16)           0                                            
__________________________________________________________________________________________________
key_input (InputLayer)          (None, 16)           0                                            
__________________________________________________________________________________________________
alice_intertwine (Intertwine)   (None, 32)           0           message_input[0][0]              
                                                                 key_input[0][0]                  
__________________________________________________________________________________________________
alice_reshape (Reshape)         (None, 32, 1)        0           alice_intertwine[0][0]           
__________________________________________________________________________________________________
alice_connection (LocallyConnec (None, 16, 12)       576         alice_reshape[0][0]              
__________________________________________________________________________________________________
alice_dense_1 (Dense)           (None, 16, 1)        13          alice_connection[0][0]           
__________________________________________________________________________________________________
alice_encryption (Flatten)      (None, 16)           0           alice_dense_1[0][0]              
__________________________________________________________________________________________________
eve_intertwine (Intertwine)     (None, 32)           0           alice_encryption[0][0]           
                                                                 message_input[0][0]              
__________________________________________________________________________________________________
bob_intertwine (Intertwine)     (None, 32)           0           alice_encryption[0][0]           
                                                                 key_input[0][0]                  
__________________________________________________________________________________________________
eve_reshape (Reshape)           (None, 32, 1)        0           eve_intertwine[0][0]             
__________________________________________________________________________________________________
bob_reshape (Reshape)           (None, 32, 1)        0           bob_intertwine[0][0]             
__________________________________________________________________________________________________
eve_connection (LocallyConnecte (None, 16, 32)       1536        eve_reshape[0][0]                
__________________________________________________________________________________________________
bob_connection (LocallyConnecte (None, 16, 12)       576         bob_reshape[0][0]                
__________________________________________________________________________________________________
eve_dense_1 (Dense)             (None, 16, 8)        264         eve_connection[0][0]             
__________________________________________________________________________________________________
bob_dense_1 (Dense)             (None, 16, 1)        13          bob_connection[0][0]             
__________________________________________________________________________________________________
eve_dense_2 (Dense)             (None, 16, 1)        9           eve_dense_1[0][0]                
__________________________________________________________________________________________________
bob_decryption (Flatten)        (None, 16)           0           bob_dense_1[0][0]                
__________________________________________________________________________________________________
eve_decryption (Flatten)        (None, 16)           0           eve_dense_2[0][0]                
==================================================================================================
Total params: 2,987
Trainable params: 1,178
Non-trainable params: 1,809
__________________________________________________________________________________________________

 The network architecture of Eve: 

__________________________________________________________________________________________________
Layer (type)                    Output Shape         Param #     Connected to                     
==================================================================================================
message_input (InputLayer)      (None, 16)           0                                            
__________________________________________________________________________________________________
key_input (InputLayer)          (None, 16)           0                                            
__________________________________________________________________________________________________
alice_intertwine (Intertwine)   (None, 32)           0           message_input[0][0]              
                                                                 key_input[0][0]                  
__________________________________________________________________________________________________
alice_reshape (Reshape)         (None, 32, 1)        0           alice_intertwine[0][0]           
__________________________________________________________________________________________________
alice_connection (LocallyConnec (None, 16, 12)       576         alice_reshape[0][0]              
__________________________________________________________________________________________________
alice_dense_1 (Dense)           (None, 16, 1)        13          alice_connection[0][0]           
__________________________________________________________________________________________________
alice_encryption (Flatten)      (None, 16)           0           alice_dense_1[0][0]              
__________________________________________________________________________________________________
eve_intertwine (Intertwine)     (None, 32)           0           alice_encryption[0][0]           
                                                                 message_input[0][0]              
__________________________________________________________________________________________________
eve_reshape (Reshape)           (None, 32, 1)        0           eve_intertwine[0][0]             
__________________________________________________________________________________________________
eve_connection (LocallyConnecte (None, 16, 32)       1536        eve_reshape[0][0]                
__________________________________________________________________________________________________
eve_dense_1 (Dense)             (None, 16, 8)        264         eve_connection[0][0]             
__________________________________________________________________________________________________
eve_dense_2 (Dense)             (None, 16, 1)        9           eve_dense_1[0][0]                
__________________________________________________________________________________________________
eve_decryption (Flatten)        (None, 16)           0           eve_dense_2[0][0]                
==================================================================================================
Total params: 3,618
Trainable params: 1,809
Non-trainable params: 1,809
__________________________________________________________________________________________________
fitting bob
Epoch 1/1
    512/1024000 [..............................] - ETA: 21:34 
…
