_________________________________________________________________
Layer (type)                 Output Shape              Param #   
=================================================================
message_input (InputLayer)   (None, 64)                0         
_________________________________________________________________
dense_1 (Dense)              (None, 4096)              266240    
_________________________________________________________________
dense_2 (Dense)              (None, 4096)              16781312  
_________________________________________________________________
dense_3 (Dense)              (None, 4096)              16781312  
_________________________________________________________________
dense_4 (Dense)              (None, 1024)              4195328   
_________________________________________________________________
dropout_1 (Dropout)          (None, 1024)              0         
_________________________________________________________________
dense_5 (Dense)              (None, 64)                65600     
=================================================================
Total params: 38,089,792
Trainable params: 38,089,792
Non-trainable params: 0
_________________________________________________________________
using key: [0 1 0 1 0 0 1 0 1 1 1 1 1 0 0 0 0 0 0 1 0 1 0 0 1 0 0 0 0 1 0 0 1 1 1 0 1
 0 0 1 0 0 1 1 1 0 1 0 1 1 0 0 1 0 1 0 1 0 0 0 1 0 0 1]

 epoch 0
