
 The network architecture of Bob: 

__________________________________________________________________________________________________
Layer (type)                    Output Shape         Param #     Connected to                     
==================================================================================================
key_input (InputLayer)          (None, 16)           0                                            
__________________________________________________________________________________________________
message_input (InputLayer)      (None, 16)           0                                            
__________________________________________________________________________________________________
concatenate_1 (Concatenate)     (None, 32)           0           key_input[0][0]                  
                                                                 message_input[0][0]              
__________________________________________________________________________________________________
alice_dense (Dense)             (None, 32)           1056        concatenate_1[0][0]              
__________________________________________________________________________________________________
alice_reshape (Reshape)         (None, 32, 1)        0           alice_dense[0][0]                
__________________________________________________________________________________________________
alice_conv1 (Conv1D)            (None, 32, 2)        10          alice_reshape[0][0]              
__________________________________________________________________________________________________
alice_conv2 (Conv1D)            (None, 16, 4)        20          alice_conv1[0][0]                
__________________________________________________________________________________________________
alice_conv3 (Conv1D)            (None, 16, 4)        20          alice_conv2[0][0]                
__________________________________________________________________________________________________
alice_conv4 (Conv1D)            (None, 16, 1)        5           alice_conv3[0][0]                
__________________________________________________________________________________________________
alice_flatten (Flatten)         (None, 16)           0           alice_conv4[0][0]                
__________________________________________________________________________________________________
concatenate_2 (Concatenate)     (None, 32)           0           alice_flatten[0][0]              
                                                                 key_input[0][0]                  
__________________________________________________________________________________________________
eve_dense1 (Dense)              (None, 16)           272         alice_flatten[0][0]              
__________________________________________________________________________________________________
bob_dense (Dense)               (None, 32)           1056        concatenate_2[0][0]              
__________________________________________________________________________________________________
eve_dense2 (Dense)              (None, 32)           544         eve_dense1[0][0]                 
__________________________________________________________________________________________________
bob_reshape (Reshape)           (None, 32, 1)        0           bob_dense[0][0]                  
__________________________________________________________________________________________________
eve_reshape (Reshape)           (None, 32, 1)        0           eve_dense2[0][0]                 
__________________________________________________________________________________________________
bob_conv1 (Conv1D)              (None, 32, 2)        10          bob_reshape[0][0]                
__________________________________________________________________________________________________
eve_conv1 (Conv1D)              (None, 32, 2)        10          eve_reshape[0][0]                
__________________________________________________________________________________________________
bob_conv2 (Conv1D)              (None, 16, 4)        20          bob_conv1[0][0]                  
__________________________________________________________________________________________________
eve_conv2 (Conv1D)              (None, 16, 4)        20          eve_conv1[0][0]                  
__________________________________________________________________________________________________
bob_conv3 (Conv1D)              (None, 16, 4)        20          bob_conv2[0][0]                  
__________________________________________________________________________________________________
eve_conv3 (Conv1D)              (None, 16, 4)        20          eve_conv2[0][0]                  
__________________________________________________________________________________________________
bob_conv4 (Conv1D)              (None, 16, 1)        5           bob_conv3[0][0]                  
__________________________________________________________________________________________________
eve_conv4 (Conv1D)              (None, 16, 1)        5           eve_conv3[0][0]                  
__________________________________________________________________________________________________
bob_flatten (Flatten)           (None, 16)           0           bob_conv4[0][0]                  
__________________________________________________________________________________________________
eve_flatten (Flatten)           (None, 16)           0           eve_conv4[0][0]                  
==================================================================================================
Total params: 3,093
Trainable params: 2,222
Non-trainable params: 871
__________________________________________________________________________________________________

 The network architecture of Eve: 

__________________________________________________________________________________________________
Layer (type)                    Output Shape         Param #     Connected to                     
==================================================================================================
key_input (InputLayer)          (None, 16)           0                                            
__________________________________________________________________________________________________
message_input (InputLayer)      (None, 16)           0                                            
__________________________________________________________________________________________________
concatenate_1 (Concatenate)     (None, 32)           0           key_input[0][0]                  
                                                                 message_input[0][0]              
__________________________________________________________________________________________________
alice_dense (Dense)             (None, 32)           1056        concatenate_1[0][0]              
__________________________________________________________________________________________________
alice_reshape (Reshape)         (None, 32, 1)        0           alice_dense[0][0]                
__________________________________________________________________________________________________
alice_conv1 (Conv1D)            (None, 32, 2)        10          alice_reshape[0][0]              
__________________________________________________________________________________________________
alice_conv2 (Conv1D)            (None, 16, 4)        20          alice_conv1[0][0]                
__________________________________________________________________________________________________
alice_conv3 (Conv1D)            (None, 16, 4)        20          alice_conv2[0][0]                
__________________________________________________________________________________________________
alice_conv4 (Conv1D)            (None, 16, 1)        5           alice_conv3[0][0]                
__________________________________________________________________________________________________
alice_flatten (Flatten)         (None, 16)           0           alice_conv4[0][0]                
__________________________________________________________________________________________________
eve_dense1 (Dense)              (None, 16)           272         alice_flatten[0][0]              
__________________________________________________________________________________________________
eve_dense2 (Dense)              (None, 32)           544         eve_dense1[0][0]                 
__________________________________________________________________________________________________
eve_reshape (Reshape)           (None, 32, 1)        0           eve_dense2[0][0]                 
__________________________________________________________________________________________________
eve_conv1 (Conv1D)              (None, 32, 2)        10          eve_reshape[0][0]                
__________________________________________________________________________________________________
eve_conv2 (Conv1D)              (None, 16, 4)        20          eve_conv1[0][0]                  
__________________________________________________________________________________________________
eve_conv3 (Conv1D)              (None, 16, 4)        20          eve_conv2[0][0]                  
__________________________________________________________________________________________________
eve_conv4 (Conv1D)              (None, 16, 1)        5           eve_conv3[0][0]                  
__________________________________________________________________________________________________
eve_flatten (Flatten)           (None, 16)           0           eve_conv4[0][0]                  
==================================================================================================
Total params: 1,742
Trainable params: 871
Non-trainable params: 871
__________________________________________________________________________________________________
pre-fitting bob
Epoch 1/1
  512/51200 [..............................] - ETA: 1:06 - los
…
